<?xml version="1.0"?>
<net name="Model0" version="11">
	<layers>
		<layer id="0" name="x" type="Parameter" version="opset1">
			<data shape="1,3,640,640" element_type="f32" />
			<output>
				<port id="0" precision="FP32" names="x">
					<dim>1</dim>
					<dim>3</dim>
					<dim>640</dim>
					<dim>640</dim>
				</port>
			</output>
		</layer>
		<layer id="1" name="__module.model.23/aten::unsqueeze/Unsqueeze" type="Const" version="opset1">
			<data element_type="f32" shape="1, 2, 8400" offset="0" size="67200" />
			<output>
				<port id="0" precision="FP32" names="2203,anchor_points">
					<dim>1</dim>
					<dim>2</dim>
					<dim>8400</dim>
				</port>
			</output>
		</layer>
		<layer id="2" name="x/fq_output_0/input_low" type="Const" version="opset1">
			<data element_type="f32" shape="" offset="67200" size="4" />
			<output>
				<port id="0" precision="FP32" />
			</output>
		</layer>
		<layer id="3" name="x/fq_output_0/input_high" type="Const" version="opset1">
			<data element_type="f32" shape="" offset="67204" size="4" />
			<output>
				<port id="0" precision="FP32" />
			</output>
		</layer>
		<layer id="4" name="x/fq_output_0/output_low" type="Const" version="opset1">
			<data element_type="f32" shape="" offset="67200" size="4" />
			<output>
				<port id="0" precision="FP32" />
			</output>
		</layer>
		<layer id="5" name="x/fq_output_0/output_high" type="Const" version="opset1">
			<data element_type="f32" shape="" offset="67204" size="4" />
			<output>
				<port id="0" precision="FP32" />
			</output>
		</layer>
		<layer id="6" name="x/fq_output_0" type="FakeQuantize" version="opset1">
			<data levels="256" auto_broadcast="numpy" />
			<input>
				<port id="0" precision="FP32">
					<dim>1</dim>
					<dim>3</dim>
					<dim>640</dim>
					<dim>640</dim>
				</port>
				<port id="1" precision="FP32" />
				<port id="2" precision="FP32" />
				<port id="3" precision="FP32" />
				<port id="4" precision="FP32" />
			</input>
			<output>
				<port id="5" precision="FP32">
					<dim>1</dim>
					<dim>3</dim>
					<dim>640</dim>
					<dim>640</dim>
				</port>
			</output>
		</layer>
		<layer id="7" name="Constant_873536" type="Const" version="opset1">
			<data element_type="i8" shape="96, 3, 3, 3" offset="67208" size="2592" />
			<output>
				<port id="0" precision="I8">
					<dim>96</dim>
					<dim>3</dim>
					<dim>3</dim>
					<dim>3</dim>
				</port>
			</output>
		</layer>
		<layer id="8" name="Convert_873537" type="Convert" version="opset1">
			<data destination_type="f32" />
			<input>
				<port id="0" precision="I8">
					<dim>96</dim>
					<dim>3</dim>
					<dim>3</dim>
					<dim>3</dim>
				</port>
			</input>
			<output>
				<port id="1" precision="FP32">
					<dim>96</dim>
					<dim>3</dim>
					<dim>3</dim>
					<dim>3</dim>
				</port>
			</output>
		</layer>
		<layer id="9" name="Constant_873538" type="Const" version="opset1">
			<data element_type="f32" shape="96, 1, 1, 1" offset="69800" size="384" />
			<output>
				<port id="0" precision="FP32">
					<dim>96</dim>
					<dim>1</dim>
					<dim>1</dim>
					<dim>1</dim>
				</port>
			</output>
		</layer>
		<layer id="10" name="__module.model.0.conv/aten::_convolution/Convolution/fq_weights_1" type="Multiply" version="opset1">
			<data auto_broadcast="numpy" />
			<input>
				<port id="0" precision="FP32">
					<dim>96</dim>
					<dim>3</dim>
					<dim>3</dim>
					<dim>3</dim>
				</port>
				<port id="1" precision="FP32">
					<dim>96</dim>
					<dim>1</dim>
					<dim>1</dim>
					<dim>1</dim>
				</port>
			</input>
			<output>
				<port id="2" precision="FP32">
					<dim>96</dim>
					<dim>3</dim>
					<dim>3</dim>
					<dim>3</dim>
				</port>
			</output>
		</layer>
		<layer id="11" name="__module.model.0.conv/aten::_convolution/Convolution" type="Convolution" version="opset1">
			<data strides="2, 2" dilations="1, 1" pads_begin="1, 1" pads_end="1, 1" auto_pad="explicit" />
			<input>
				<port id="0" precision="FP32">
					<dim>1</dim>
					<dim>3</dim>
					<dim>640</dim>
					<dim>640</dim>
				</port>
				<port id="1" precision="FP32">
					<dim>96</dim>
					<dim>3</dim>
					<dim>3</dim>
					<dim>3</dim>
				</port>
			</input>
			<output>
				<port id="2" precision="FP32">
					<dim>1</dim>
					<dim>96</dim>
					<dim>320</dim>
					<dim>320</dim>
				</port>
			</output>
		</layer>
		<layer id="12" name="__module.model.0.conv/aten::_convolution/Reshape" type="Const" version="opset1">
			<data element_type="f32" shape="1, 96, 1, 1" offset="70184" size="384" />
			<output>
				<port id="0" precision="FP32">
					<dim>1</dim>
					<dim>96</dim>
					<dim>1</dim>
					<dim>1</dim>
				</port>
			</output>
		</layer>
		<layer id="13" name="__module.model.0.conv/aten::_convolution/Add" type="Add" version="opset1">
			<data auto_broadcast="numpy" />
			<input>
				<port id="0" precision="FP32">
					<dim>1</dim>
					<dim>96</dim>
					<dim>320</dim>
					<dim>320</dim>
				</port>
				<port id="1" precision="FP32">
					<dim>1</dim>
					<dim>96</dim>
					<dim>1</dim>
					<dim>1</dim>
				</port>
			</input>
			<output>
				<port id="2" precision="FP32" names="94_1">
					<dim>1</dim>
					<dim>96</dim>
					<dim>320</dim>
					<dim>320</dim>
				</port>
			</output>
		</layer>
		<layer id="14" name="__module.model.22.m.0.1.ffn.0.act/aten::silu_/Swish" type="Swish" version="opset4">
			<input>
				<port id="0" precision="FP32">
					<dim>1</dim>
					<dim>96</dim>
					<dim>320</dim>
					<dim>320</dim>
				</port>
			</input>
			<output>
				<port id="1" precision="FP32" names="94,input.1">
					<dim>1</dim>
					<dim>96</dim>
					<dim>320</dim>
					<dim>320</dim>
				</port>
			</output>
		</layer>
		<layer id="15" name="__module.model.22.m.0.1.ffn.0.act/aten::silu_/Swish/fq_output_0/input_low" type="Const" version="opset1">
			<data element_type="f32" shape="" offset="70568" size="4" />
			<output>
				<port id="0" precision="FP32" />
			</output>
		</layer>
		<layer id="16" name="__module.model.22.m.0.1.ffn.0.act/aten::silu_/Swish/fq_output_0/input_high" type="Const" version="opset1">
			<data element_type="f32" shape="" offset="70572" size="4" />
			<output>
				<port id="0" precision="FP32" />
			</output>
		</layer>
		<layer id="17" name="__module.model.22.m.0.1.ffn.0.act/aten::silu_/Swish/fq_output_0/output_low" type="Const" version="opset1">
			<data element_type="f32" shape="" offset="70568" size="4" />
			<output>
				<port id="0" precision="FP32" />
			</output>
		</layer>
		<layer id="18" name="__module.model.22.m.0.1.ffn.0.act/aten::silu_/Swish/fq_output_0/output_high" type="Const" version="opset1">
			<data element_type="f32" shape="" offset="70572" size="4" />
			<output>
				<port id="0" precision="FP32" />
			</output>
		</layer>
		<layer id="19" name="__module.model.22.m.0.1.ffn.0.act/aten::silu_/Swish/fq_output_0" type="FakeQuantize" version="opset1">
			<data levels="256" auto_broadcast="numpy" />
			<input>
				<port id="0" precision="FP32">
					<dim>1</dim>
					<dim>96</dim>
					<dim>320</dim>
					<dim>320</dim>
				</port>
				<port id="1" precision="FP32" />
				<port id="2" precision="FP32" />
				<port id="3" precision="FP32" />
				<port id="4" precision="FP32" />
			</input>
			<output>
				<port id="5" precision="FP32">
					<dim>1</dim>
					<dim>96</dim>
					<dim>320</dim>
					<dim>320</dim>
				</port>
			</output>
		</layer>
		<layer id="20" name="Constant_873540" type="Const" version="opset1">
			<data element_type="i8" shape="192, 96, 3, 3" offset="70576" size="165888" />
			<output>
				<port id="0" precision="I8">
					<dim>192</dim>
					<dim>96</dim>
					<dim>3</dim>
					<dim>3</dim>
				</port>
			</output>
		</layer>
		<layer id="21" name="Convert_873541" type="Convert" version="opset1">
			<data destination_type="f32" />
			<input>
				<port id="0" precision="I8">
					<dim>192</dim>
					<dim>96</dim>
					<dim>3</dim>
					<dim>3</dim>
				</port>
			</input>
			<output>
				<port id="1" precision="FP32">
					<dim>192</dim>
					<dim>96</dim>
					<dim>3</dim>
					<dim>3</dim>
				</port>
			</output>
		</layer>
		<layer id="22" name="Constant_873542" type="Const" version="opset1">
			<data element_type="f32" shape="192, 1, 1, 1" offset="236464" size="768" />
			<output>
				<port id="0" precision="FP32">
					<dim>192</dim>
					<dim>1</dim>
					<dim>1</dim>
					<dim>1</dim>
				</port>
			</output>
		</layer>
		<layer id="23" name="__module.model.1.conv/aten::_convolution/Convolution/fq_weights_1" type="Multiply" version="opset1">
			<data auto_broadcast="numpy" />
			<input>
				<port id="0" precision="FP32">
					<dim>192</dim>
					<dim>96</dim>
					<dim>3</dim>
					<dim>3</dim>
				</port>
				<port id="1" precision="FP32">
					<dim>192</dim>
					<dim>1</dim>
					<dim>1</dim>
					<dim>1</dim>
				</port>
			</input>
			<output>
				<port id="2" precision="FP32">
					<dim>192</dim>
					<dim>96</dim>
					<dim>3</dim>
					<dim>3</dim>
				</port>
			</output>
		</layer>
		<layer id="24" name="__module.model.1.conv/aten::_convolution/Convolution" type="Convolution" version="opset1">
			<data strides="2, 2" dilations="1, 1" pads_begin="1, 1" pads_end="1, 1" auto_pad="explicit" />
			<input>
				<port id="0" precision="FP32">
					<dim>1</dim>
					<dim>96</dim>
					<dim>320</dim>
					<dim>320</dim>
				</port>
				<port id="1" precision="FP32">
					<dim>192</dim>
					<dim>96</dim>
					<dim>3</dim>
					<dim>3</dim>
				</port>
			</input>
			<output>
				<port id="2" precision="FP32">
					<dim>1</dim>
					<dim>192</dim>
					<dim>160</dim>
					<dim>160</dim>
				</port>
			</output>
		</layer>
		<layer id="25" name="__module.model.1.conv/aten::_convolution/Reshape" type="Const" version="opset1">
			<data element_type="f32" shape="1, 192, 1, 1" offset="237232" size="768" />
			<output>
				<port id="0" precision="FP32">
					<dim>1</dim>
					<dim>192</dim>
					<dim>1</dim>
					<dim>1</dim>
				</port>
			</output>
		</layer>
		<layer id="26" name="__module.model.1.conv/aten::_convolution/Add" type="Add" version="opset1">
			<data auto_broadcast="numpy" />
			<input>
				<port id="0" precision="FP32">
					<dim>1</dim>
					<dim>192</dim>
					<dim>160</dim>
					<dim>160</dim>
				</port>
				<port id="1" precision="FP32">
					<dim>1</dim>
					<dim>192</dim>
					<dim>1</dim>
					<dim>1</dim>
				</port>
			</input>
			<output>
				<port id="2" precision="FP32" names="108_1">
					<dim>1</dim>
					<dim>192</dim>
					<dim>160</dim>
					<dim>160</dim>
				</port>
			</output>
		</layer>
		<layer id="27" name="__module.model.22.m.0.1.ffn.0.act/aten::silu_/Swish_1" type="Swish" version="opset4">
			<input>
				<port id="0" precision="FP32">
					<dim>1</dim>
					<dim>192</dim>
					<dim>160</dim>
					<dim>160</dim>
				</port>
			</input>
			<output>
				<port id="1" precision="FP32" names="108,input.5">
					<dim>1</dim>
					<dim>192</dim>
					<dim>160</dim>
					<dim>160</dim>
				</port>
			</output>
		</layer>
		<layer id="28" name="__module.model.22.m.0.1.ffn.0.act/aten::silu_/Swish_1/fq_output_0/input_low" type="Const" version="opset1">
			<data element_type="f32" shape="" offset="238000" size="4" />
			<output>
				<port id="0" precision="FP32" />
			</output>
		</layer>
		<layer id="29" name="__module.model.22.m.0.1.ffn.0.act/aten::silu_/Swish_1/fq_output_0/input_high" type="Const" version="opset1">
			<data element_type="f32" shape="" offset="238004" size="4" />
			<output>
				<port id="0" precision="FP32" />
			</output>
		</layer>
		<layer id="30" name="__module.model.22.m.0.1.ffn.0.act/aten::silu_/Swish_1/fq_output_0/output_low" type="Const" version="opset1">
			<data element_type="f32" shape="" offset="238000" size="4" />
			<output>
				<port id="0" precision="FP32" />
			</output>
		</layer>
		<layer id="31" name="__module.model.22.m.0.1.ffn.0.act/aten::silu_/Swish_1/fq_output_0/output_high" type="Const" version="opset1">
			<data element_type="f32" shape="" offset="238004" size="4" />
			<output>
				<port id="0" precision="FP32" />
			</output>
		</layer>
		<layer id="32" name="__module.model.22.m.0.1.ffn.0.act/aten::silu_/Swish_1/fq_output_0" type="FakeQuantize" version="opset1">
			<data levels="256" auto_broadcast="numpy" />
			<input>
				<port id="0" precision="FP32">
					<dim>1</dim>
					<dim>192</dim>
					<dim>160</dim>
					<dim>160</dim>
				</port>
				<port id="1" precision="FP32" />
				<port id="2" precision="FP32" />
				<port id="3" precision="FP32" />
				<port id="4" precision="FP32" />
			</input>
			<output>
				<port id="5" precision="FP32">
					<dim>1</dim>
					<dim>192</dim>
					<dim>160</dim>
					<dim>160</dim>
				</port>
			</output>
		</layer>
		<layer id="33" name="Constant_873544" type="Const" version="opset1">
			<data element_type="i8" shape="192, 192, 1, 1" offset="238008" size="36864" />
			<output>
				<port id="0" precision="I8">
					<dim>192</dim>
					<dim>192</dim>
					<dim>1</dim>
					<dim>1</dim>
				</port>
			</output>
		</layer>
		<layer id="34" name="Convert_873545" type="Convert" version="opset1">
			<data destination_type="f32" />
			<input>
				<port id="0" precision="I8">
					<dim>192</dim>
					<dim>192</dim>
					<dim>1</dim>
					<dim>1</dim>
				</port>
			</input>
			<output>
				<port id="1" precision="FP32">
					<dim>192</dim>
					<dim>192</dim>
					<dim>1</dim>
					<dim>1</dim>
				</port>
			</output>
		</layer>
		<layer id="35" name="Constant_873546" type="Const" version="opset1">
			<data element_type="f32" shape="192, 1, 1, 1" offset="274872" size="768" />
			<output>
				<port id="0" precision="FP32">
					<dim>192</dim>
					<dim>1</dim>
					<dim>1</dim>
					<dim>1</dim>
				</port>
			</output>
		</layer>
		<layer id="36" name="__module.model.2.cv1.conv/aten::_convolution/Convolution/fq_weights_1" type="Multiply" version="opset1">
			<data auto_broadcast="numpy" />
			<input>
				<port id="0" precision="FP32">
					<dim>192</dim>
					<dim>192</dim>
					<dim>1</dim>
					<dim>1</dim>
				</port>
				<port id="1" precision="FP32">
					<dim>192</dim>
					<dim>1</dim>
					<dim>1</dim>
					<dim>1</dim>
				</port>
			</input>
			<output>
				<port id="2" precision="FP32">
					<dim>192</dim>
					<dim>192</dim>
					<dim>1</dim>
					<dim>1</dim>
				</port>
			</output>
		</layer>
		<layer id="37" name="__module.model.2.cv1.conv/aten::_convolution/Convolution" type="Convolution" version="opset1">
			<data strides="1, 1" dilations="1, 1" pads_begin="0, 0" pads_end="0, 0" auto_pad="explicit" />
			<input>
				<port id="0" precision="FP32">
					<dim>1</dim>
					<dim>192</dim>
					<dim>160</dim>
					<dim>160</dim>
				</port>
				<port id="1" precision="FP32">
					<dim>192</dim>
					<dim>192</dim>
					<dim>1</dim>
					<dim>1</dim>
				</port>
			</input>
			<output>
				<port id="2" precision="FP32">
					<dim>1</dim>
					<dim>192</dim>
					<dim>160</dim>
					<dim>160</dim>
				</port>
			</output>
		</layer>
		<layer id="38" name="__module.model.2.cv1.conv/aten::_convolution/Reshape" type="Const" version="opset1">
			<data element_type="f32" shape="1, 192, 1, 1" offset="275640" size="768" />
			<output>
				<port id="0" precision="FP32">
					<dim>1</dim>
					<dim>192</dim>
					<dim>1</dim>
					<dim>1</dim>
				</port>
			</output>
		</layer>
		<layer id="39" name="__module.model.2.cv1.conv/aten::_convolution/Add" type="Add" version="opset1">
			<data auto_broadcast="numpy" />
			<input>
				<port id="0" precision="FP32">
					<dim>1</dim>
					<dim>192</dim>
					<dim>160</dim>
					<dim>160</dim>
				</port>
				<port id="1" precision="FP32">
					<dim>1</dim>
					<dim>192</dim>
					<dim>1</dim>
					<dim>1</dim>
				</port>
			</input>
			<output>
				<port id="2" precision="FP32" names="128_1">
					<dim>1</dim>
					<dim>192</dim>
					<dim>160</dim>
					<dim>160</dim>
				</port>
			</output>
		</layer>
		<layer id="40" name="__module.model.22.m.0.1.ffn.0.act/aten::silu_/Swish_2" type="Swish" version="opset4">
			<input>
				<port id="0" precision="FP32">
					<dim>1</dim>
					<dim>192</dim>
					<dim>160</dim>
					<dim>160</dim>
				</port>
			</input>
			<output>
				<port id="1" precision="FP32" names="128,input.9">
					<dim>1</dim>
					<dim>192</dim>
					<dim>160</dim>
					<dim>160</dim>
				</port>
			</output>
		</layer>
		<layer id="41" name="__module.model.22.m.0.1.ffn.0.act/aten::silu_/Swish_2/fq_output_0/input_low" type="Const" version="opset1">
			<data element_type="f32" shape="" offset="276408" size="4" />
			<output>
				<port id="0" precision="FP32" />
			</output>
		</layer>
		<layer id="42" name="__module.model.22.m.0.1.ffn.0.act/aten::silu_/Swish_2/fq_output_0/input_high" type="Const" version="opset1">
			<data element_type="f32" shape="" offset="276412" size="4" />
			<output>
				<port id="0" precision="FP32" />
			</output>
		</layer>
		<layer id="43" name="__module.model.22.m.0.1.ffn.0.act/aten::silu_/Swish_2/fq_output_0/output_low" type="Const" version="opset1">
			<data element_type="f32" shape="" offset="276408" size="4" />
			<output>
				<port id="0" precision="FP32" />
			</output>
		</layer>
		<layer id="44" name="__module.model.22.m.0.1.ffn.0.act/aten::silu_/Swish_2/fq_output_0/output_high" type="Const" version="opset1">
			<data element_type="f32" shape="" offset="276412" size="4" />
			<output>
				<port id="0" precision="FP32" />
			</output>
		</layer>
		<layer id="45" name="__module.model.22.m.0.1.ffn.0.act/aten::silu_/Swish_2/fq_output_0" type="FakeQuantize" version="opset1">
			<data levels="256" auto_broadcast="numpy" />
			<input>
				<port id="0" precision="FP32">
					<dim>1</dim>
					<dim>192</dim>
					<dim>160</dim>
					<dim>160</dim>
				</port>
				<port id="1" precision="FP32" />
				<port id="2" precision="FP32" />
				<port id="3" precision="FP32" />
				<port id="4" precision="FP32" />
			</input>
			<output>
				<port id="5" precision="FP32">
					<dim>1</dim>
					<dim>192</dim>
					<dim>160</dim>
					<dim>160</dim>
				</port>
			</output>
		</layer>
		<layer id="46" name="114" type="Const" version="opset1">
			<data element_type="i64" shape="" offset="276416" size="8" />
			<output>
				<port id="0" precision="I64" names="114" />
			</output>
		</layer>
		<layer id="47" name="Constant_219" type="Const" version="opset1">
			<data element_type="i64" shape="2" offset="276424" size="16" />
			<output>
				<port id="0" precision="I64" names="130">
					<dim>2</dim>
				</port>
			</output>
		</layer>
		<layer id="48" name="__module.model.2/aten::split_with_sizes/VariadicSplit" type="VariadicSplit" version="opset1">
			<input>
				<port id="0" precision="FP32">
					<dim>1</dim>
					<dim>192</dim>
					<dim>160</dim>
					<dim>160</dim>
				</port>
				<port id="1" precision="I64" />
				<port id="2" precision="I64">
					<dim>2</dim>
				</port>
			</input>
			<output>
				<port id="3" precision="FP32" names="132">
					<dim>1</dim>
					<dim>96</dim>
					<dim>160</dim>
					<dim>160</dim>
				</port>
				<port id="4" precision="FP32" names="133,input.11">
					<dim>1</dim>
					<dim>96</dim>
					<dim>160</dim>
					<dim>160</dim>
				</port>
			</output>
		</layer>
		<layer id="49" name="Constant_873548" type="Const" version="opset1">
			<data element_type="i8" shape="48, 96, 1, 1" offset="276440" size="4608" />
			<output>
				<port id="0" precision="I8">
					<dim>48</dim>
					<dim>96</dim>
					<dim>1</dim>
					<dim>1</dim>
				</port>
			</output>
		</layer>
		<layer id="50" name="Convert_873549" type="Convert" version="opset1">
			<data destination_type="f32" />
			<input>
				<port id="0" precision="I8">
					<dim>48</dim>
					<dim>96</dim>
					<dim>1</dim>
					<dim>1</dim>
				</port>
			</input>
			<output>
				<port id="1" precision="FP32">
					<dim>48</dim>
					<dim>96</dim>
					<dim>1</dim>
					<dim>1</dim>
				</port>
			</output>
		</layer>
		<layer id="51" name="Constant_873550" type="Const" version="opset1">
			<data element_type="f32" shape="48, 1, 1, 1" offset="281048" size="192" />
			<output>
				<port id="0" precision="FP32">
					<dim>48</dim>
					<dim>1</dim>
					<dim>1</dim>
					<dim>1</dim>
				</port>
			</output>
		</layer>
		<layer id="52" name="__module.model.2.m.0.cv1.conv/aten::_convolution/Convolution/fq_weights_1" type="Multiply" version="opset1">
			<data auto_broadcast="numpy" />
			<input>
				<port id="0" precision="FP32">
					<dim>48</dim>
					<dim>96</dim>
					<dim>1</dim>
					<dim>1</dim>
				</port>
				<port id="1" precision="FP32">
					<dim>48</dim>
					<dim>1</dim>
					<dim>1</dim>
					<dim>1</dim>
				</port>
			</input>
			<output>
				<port id="2" precision="FP32">
					<dim>48</dim>
					<dim>96</dim>
					<dim>1</dim>
					<dim>1</dim>
				</port>
			</output>
		</layer>
		<layer id="53" name="__module.model.2.m.0.cv1.conv/aten::_convolution/Convolution" type="Convolution" version="opset1">
			<data strides="1, 1" dilations="1, 1" pads_begin="0, 0" pads_end="0, 0" auto_pad="explicit" />
			<input>
				<port id="0" precision="FP32">
					<dim>1</dim>
					<dim>96</dim>
					<dim>160</dim>
					<dim>160</dim>
				</port>
				<port id="1" precision="FP32">
					<dim>48</dim>
					<dim>96</dim>
					<dim>1</dim>
					<dim>1</dim>
				</port>
			</input>
			<output>
				<port id="2" precision="FP32">
					<dim>1</dim>
					<dim>48</dim>
					<dim>160</dim>
					<dim>160</dim>
				</port>
			</output>
		</layer>
		<layer id="54" name="__module.model.2.m.0.cv1.conv/aten::_convolution/Reshape" type="Const" version="opset1">
			<data element_type="f32" shape="1, 48, 1, 1" offset="281240" size="192" />
			<output>
				<port id="0" precision="FP32">
					<dim>1</dim>
					<dim>48</dim>
					<dim>1</dim>
					<dim>1</dim>
				</port>
			</output>
		</layer>
		<layer id="55" name="__module.model.2.m.0.cv1.conv/aten::_convolution/Add" type="Add" version="opset1">
			<data auto_broadcast="numpy" />
			<input>
				<port id="0" precision="FP32">
					<dim>1</dim>
					<dim>48</dim>
					<dim>160</dim>
					<dim>160</dim>
				</port>
				<port id="1" precision="FP32">
					<dim>1</dim>
					<dim>48</dim>
					<dim>1</dim>
					<dim>1</dim>
				</port>
			</input>
			<output>
				<port id="2" precision="FP32" names="145_1">
					<dim>1</dim>
					<dim>48</dim>
					<dim>160</dim>
					<dim>160</dim>
				</port>
			</output>
		</layer>
		<layer id="56" name="__module.model.22.m.0.1.ffn.0.act/aten::silu_/Swish_3" type="Swish" version="opset4">
			<input>
				<port id="0" precision="FP32">
					<dim>1</dim>
					<dim>48</dim>
					<dim>160</dim>
					<dim>160</dim>
				</port>
			</input>
			<output>
				<port id="1" precision="FP32" names="145,input.13">
					<dim>1</dim>
					<dim>48</dim>
					<dim>160</dim>
					<dim>160</dim>
				</port>
			</output>
		</layer>
		<layer id="57" name="__module.model.22.m.0.1.ffn.0.act/aten::silu_/Swish_3/fq_output_0/input_low" type="Const" version="opset1">
			<data element_type="f32" shape="" offset="281432" size="4" />
			<output>
				<port id="0" precision="FP32" />
			</output>
		</layer>
		<layer id="58" name="__module.model.22.m.0.1.ffn.0.act/aten::silu_/Swish_3/fq_output_0/input_high" type="Const" version="opset1">
			<data element_type="f32" shape="" offset="281436" size="4" />
			<output>
				<port id="0" precision="FP32" />
			</output>
		</layer>
		<layer id="59" name="__module.model.22.m.0.1.ffn.0.act/aten::silu_/Swish_3/fq_output_0/output_low" type="Const" version="opset1">
			<data element_type="f32" shape="" offset="281432" size="4" />
			<output>
				<port id="0" precision="FP32" />
			</output>
		</layer>
		<layer id="60" name="__module.model.22.m.0.1.ffn.0.act/aten::silu_/Swish_3/fq_output_0/output_high" type="Const" version="opset1">
			<data element_type="f32" shape="" offset="281436" size="4" />
			<output>
				<port id="0" precision="FP32" />
			</output>
		</layer>
		<layer id="61" name="__module.model.22.m.0.1.ffn.0.act/aten::silu_/Swish_3/fq_output_0" type="FakeQuantize" version="opset1">
			<data levels="256" auto_broadcast="numpy" />
			<input>
				<port id="0" precision="FP32">
					<dim>1</dim>
					<dim>48</dim>
					<dim>160</dim>
					<dim>160</dim>
				</port>
				<port id="1" precision="FP32" />
				<port id="2" precision="FP32" />
				<port id="3" precision="FP32" />
				<port id="4" precision="FP32" />
			</input>
			<output>
				<port id="5" precision="FP32">
					<dim>1</dim>
					<dim>48</dim>
					<dim>160</dim>
					<dim>160</dim>
				</port>
			</output>
		</layer>
		<layer id="62" name="Constant_873552" type="Const" version="opset1">
			<data element_type="i8" shape="48, 48, 3, 3" offset="281440" size="20736" />
			<output>
				<port id="0" precision="I8">
					<dim>48</dim>
					<dim>48</dim>
					<dim>3</dim>
					<dim>3</dim>
				</port>
			</output>
		</layer>
		<layer id="63" name="Convert_873553" type="Convert" version="opset1">
			<data destination_type="f32" />
			<input>
				<port id="0" precision="I8">
					<dim>48</dim>
					<dim>48</dim>
					<dim>3</dim>
					<dim>3</dim>
				</port>
			</input>
			<output>
				<port id="1" precision="FP32">
					<dim>48</dim>
					<dim>48</dim>
					<dim>3</dim>
					<dim>3</dim>
				</port>
			</output>
		</layer>
		<layer id="64" name="Constant_873554" type="Const" version="opset1">
			<data element_type="f32" shape="48, 1, 1, 1" offset="302176" size="192" />
			<output>
				<port id="0" precision="FP32">
					<dim>48</dim>
					<dim>1</dim>
					<dim>1</dim>
					<dim>1</dim>
				</port>
			</output>
		</layer>
		<layer id="65" name="__module.model.2.m.0.m.0.cv1.conv/aten::_convolution/Convolution/fq_weights_1" type="Multiply" version="opset1">
			<data auto_broadcast="numpy" />
			<input>
				<port id="0" precision="FP32">
					<dim>48</dim>
					<dim>48</dim>
					<dim>3</dim>
					<dim>3</dim>
				</port>
				<port id="1" precision="FP32">
					<dim>48</dim>
					<dim>1</dim>
					<dim>1</dim>
					<dim>1</dim>
				</port>
			</input>
			<output>
				<port id="2" precision="FP32">
					<dim>48</dim>
					<dim>48</dim>
					<dim>3</dim>
					<dim>3</dim>
				</port>
			</output>
		</layer>
		<layer id="66" name="__module.model.2.m.0.m.0.cv1.conv/aten::_convolution/Convolution" type="Convolution" version="opset1">
			<data strides="1, 1" dilations="1, 1" pads_begin="1, 1" pads_end="1, 1" auto_pad="explicit" />
			<input>
				<port id="0" precision="FP32">
					<dim>1</dim>
					<dim>48</dim>
					<dim>160</dim>
					<dim>160</dim>
				</port>
				<port id="1" precision="FP32">
					<dim>48</dim>
					<dim>48</dim>
					<dim>3</dim>
					<dim>3</dim>
				</port>
			</input>
			<output>
				<port id="2" precision="FP32">
					<dim>1</dim>
					<dim>48</dim>
					<dim>160</dim>
					<dim>160</dim>
				</port>
			</output>
		</layer>
		<layer id="67" name="__module.model.2.m.0.m.0.cv1.conv/aten::_convolution/Reshape" type="Const" version="opset1">
			<data element_type="f32" shape="1, 48, 1, 1" offset="302368" size="192" />
			<output>
				<port id="0" precision="FP32">
					<dim>1</dim>
					<dim>48</dim>
					<dim>1</dim>
					<dim>1</dim>
				</port>
			</output>
		</layer>
		<layer id="68" name="__module.model.2.m.0.m.0.cv1.conv/aten::_convolution/Add" type="Add" version="opset1">
			<data auto_broadcast="numpy" />
			<input>
				<port id="0" precision="FP32">
					<dim>1</dim>
					<dim>48</dim>
					<dim>160</dim>
					<dim>160</dim>
				</port>
				<port id="1" precision="FP32">
					<dim>1</dim>
					<dim>48</dim>
					<dim>1</dim>
					<dim>1</dim>
				</port>
			</input>
			<output>
				<port id="2" precision="FP32" names="158_1">
					<dim>1</dim>
					<dim>48</dim>
					<dim>160</dim>
					<dim>160</dim>
				</port>
			</output>
		</layer>
		<layer id="69" name="__module.model.22.m.0.1.ffn.0.act/aten::silu_/Swish_4" type="Swish" version="opset4">
			<input>
				<port id="0" precision="FP32">
					<dim>1</dim>
					<dim>48</dim>
					<dim>160</dim>
					<dim>160</dim>
				</port>
			</input>
			<output>
				<port id="1" precision="FP32" names="158,input.17">
					<dim>1</dim>
					<dim>48</dim>
					<dim>160</dim>
					<dim>160</dim>
				</port>
			</output>
		</layer>
		<layer id="70" name="__module.model.22.m.0.1.ffn.0.act/aten::silu_/Swish_4/fq_output_0/input_low" type="Const" version="opset1">
			<data element_type="f32" shape="" offset="302560" size="4" />
			<output>
				<port id="0" precision="FP32" />
			</output>
		</layer>
		<layer id="71" name="__module.model.22.m.0.1.ffn.0.act/aten::silu_/Swish_4/fq_output_0/input_high" type="Const" version="opset1">
			<data element_type="f32" shape="" offset="302564" size="4" />
			<output>
				<port id="0" precision="FP32" />
			</output>
		</layer>
		<layer id="72" name="__module.model.22.m.0.1.ffn.0.act/aten::silu_/Swish_4/fq_output_0/output_low" type="Const" version="opset1">
			<data element_type="f32" shape="" offset="302560" size="4" />
			<output>
				<port id="0" precision="FP32" />
			</output>
		</layer>
		<layer id="73" name="__module.model.22.m.0.1.ffn.0.act/aten::silu_/Swish_4/fq_output_0/output_high" type="Const" version="opset1">
			<data element_type="f32" shape="" offset="302564" size="4" />
			<output>
				<port id="0" precision="FP32" />
			</output>
		</layer>
		<layer id="74" name="__module.model.22.m.0.1.ffn.0.act/aten::silu_/Swish_4/fq_output_0" type="FakeQuantize" version="opset1">
			<data levels="256" auto_broadcast="numpy" />
			<input>
				<port id="0" precision="FP32">
					<dim>1</dim>
					<dim>48</dim>
					<dim>160</dim>
					<dim>160</dim>
				</port>
				<port id="1" precision="FP32" />
				<port id="2" precision="FP32" />
				<port id="3" precision="FP32" />
				<port id="4" precision="FP32" />
			</input>
			<output>
				<port id="5" precision="FP32">
					<dim>1</dim>
					<dim>48</dim>
					<dim>160</dim>
					<dim>160</dim>
				</port>
			</output>
		</layer>
		<layer id="75" name="Constant_873556" type="Const" version="opset1">
			<data element_type="i8" shape="48, 48, 3, 3" offset="302568" size="20736" />
			<output>
				<port id="0" precision="I8">
					<dim>48</dim>
					<dim>48</dim>
					<dim>3</dim>
					<dim>3</dim>
				</port>
			</output>
		</layer>
		<layer id="76" name="Convert_873557" type="Convert" version="opset1">
			<data destination_type="f32" />
			<input>
				<port id="0" precision="I8">
					<dim>48</dim>
					<dim>48</dim>
					<dim>3</dim>
					<dim>3</dim>
				</port>
			</input>
			<output>
				<port id="1" precision="FP32">
					<dim>48</dim>
					<dim>48</dim>
					<dim>3</dim>
					<dim>3</dim>
				</port>
			</output>
		</layer>
		<layer id="77" name="Constant_873558" type="Const" version="opset1">
			<data element_type="f32" shape="48, 1, 1, 1" offset="323304" size="192" />
			<output>
				<port id="0" precision="FP32">
					<dim>48</dim>
					<dim>1</dim>
					<dim>1</dim>
					<dim>1</dim>
				</port>
			</output>
		</layer>
		<layer id="78" name="__module.model.2.m.0.m.0.cv2.conv/aten::_convolution/Convolution/fq_weights_1" type="Multiply" version="opset1">
			<data auto_broadcast="numpy" />
			<input>
				<port id="0" precision="FP32">
					<dim>48</dim>
					<dim>48</dim>
					<dim>3</dim>
					<dim>3</dim>
				</port>
				<port id="1" precision="FP32">
					<dim>48</dim>
					<dim>1</dim>
					<dim>1</dim>
					<dim>1</dim>
				</port>
			</input>
			<output>
				<port id="2" precision="FP32">
					<dim>48</dim>
					<dim>48</dim>
					<dim>3</dim>
					<dim>3</dim>
				</port>
			</output>
		</layer>
		<layer id="79" name="__module.model.2.m.0.m.0.cv2.conv/aten::_convolution/Convolution" type="Convolution" version="opset1">
			<data strides="1, 1" dilations="1, 1" pads_begin="1, 1" pads_end="1, 1" auto_pad="explicit" />
			<input>
				<port id="0" precision="FP32">
					<dim>1</dim>
					<dim>48</dim>
					<dim>160</dim>
					<dim>160</dim>
				</port>
				<port id="1" precision="FP32">
					<dim>48</dim>
					<dim>48</dim>
					<dim>3</dim>
					<dim>3</dim>
				</port>
			</input>
			<output>
				<port id="2" precision="FP32">
					<dim>1</dim>
					<dim>48</dim>
					<dim>160</dim>
					<dim>160</dim>
				</port>
			</output>
		</layer>
		<layer id="80" name="__module.model.2.m.0.m.0.cv2.conv/aten::_convolution/Reshape" type="Const" version="opset1">
			<data element_type="f32" shape="1, 48, 1, 1" offset="323496" size="192" />
			<output>
				<port id="0" precision="FP32">
					<dim>1</dim>
					<dim>48</dim>
					<dim>1</dim>
					<dim>1</dim>
				</port>
			</output>
		</layer>
		<layer id="81" name="__module.model.2.m.0.m.0.cv2.conv/aten::_convolution/Add" type="Add" version="opset1">
			<data auto_broadcast="numpy" />
			<input>
				<port id="0" precision="FP32">
					<dim>1</dim>
					<dim>48</dim>
					<dim>160</dim>
					<dim>160</dim>
				</port>
				<port id="1" precision="FP32">
					<dim>1</dim>
					<dim>48</dim>
					<dim>1</dim>
					<dim>1</dim>
				</port>
			</input>
			<output>
				<port id="2" precision="FP32" names="167_1">
					<dim>1</dim>
					<dim>48</dim>
					<dim>160</dim>
					<dim>160</dim>
				</port>
			</output>
		</layer>
		<layer id="82" name="__module.model.22.m.0.1.ffn.0.act/aten::silu_/Swish_5" type="Swish" version="opset4">
			<input>
				<port id="0" precision="FP32">
					<dim>1</dim>
					<dim>48</dim>
					<dim>160</dim>
					<dim>160</dim>
				</port>
			</input>
			<output>
				<port id="1" precision="FP32" names="167,input.21">
					<dim>1</dim>
					<dim>48</dim>
					<dim>160</dim>
					<dim>160</dim>
				</port>
			</output>
		</layer>
		<layer id="83" name="__module.model.22.m.0.1.ffn.0.act/aten::silu_/Swish_5/fq_output_0/input_low" type="Const" version="opset1">
			<data element_type="f32" shape="" offset="238000" size="4" />
			<output>
				<port id="0" precision="FP32" />
			</output>
		</layer>
		<layer id="84" name="__module.model.22.m.0.1.ffn.0.act/aten::silu_/Swish_5/fq_output_0/input_high" type="Const" version="opset1">
			<data element_type="f32" shape="" offset="323688" size="4" />
			<output>
				<port id="0" precision="FP32" />
			</output>
		</layer>
		<layer id="85" name="__module.model.22.m.0.1.ffn.0.act/aten::silu_/Swish_5/fq_output_0/output_low" type="Const" version="opset1">
			<data element_type="f32" shape="" offset="238000" size="4" />
			<output>
				<port id="0" precision="FP32" />
			</output>
		</layer>
		<layer id="86" name="__module.model.22.m.0.1.ffn.0.act/aten::silu_/Swish_5/fq_output_0/output_high" type="Const" version="opset1">
			<data element_type="f32" shape="" offset="323688" size="4" />
			<output>
				<port id="0" precision="FP32" />
			</output>
		</layer>
		<layer id="87" name="__module.model.22.m.0.1.ffn.0.act/aten::silu_/Swish_5/fq_output_0" type="FakeQuantize" version="opset1">
			<data levels="256" auto_broadcast="numpy" />
			<input>
				<port id="0" precision="FP32">
					<dim>1</dim>
					<dim>48</dim>
					<dim>160</dim>
					<dim>160</dim>
				</port>
				<port id="1" precision="FP32" />
				<port id="2" precision="FP32" />
				<port id="3" precision="FP32" />
				<port id="4" precision="FP32" />
			</input>
			<output>
				<port id="5" precision="FP32">
					<dim>1</dim>
					<dim>48</dim>
					<dim>160</dim>
					<dim>160</dim>
				</port>
			</output>
		</layer>
		<layer id="88" name="__module.model.2.m.0.m.0/aten::add/Add" type="Add" version="opset1">
			<data auto_broadcast="numpy" />
			<input>
				<port id="0" precision="FP32">
					<dim>1</dim>
					<dim>48</dim>
					<dim>160</dim>
					<dim>160</dim>
				</port>
				<port id="1" precision="FP32">
					<dim>1</dim>
					<dim>48</dim>
					<dim>160</dim>
					<dim>160</dim>
				</port>
			</input>
			<output>
				<port id="2" precision="FP32" names="169,input.23">
					<dim>1</dim>
					<dim>48</dim>
					<dim>160</dim>
					<dim>160</dim>
				</port>
			</output>
		</layer>
		<layer id="89" name="__module.model.2.m.0.m.0/aten::add/Add/fq_output_0/input_low" type="Const" version="opset1">
			<data element_type="f32" shape="" offset="323692" size="4" />
			<output>
				<port id="0" precision="FP32" />
			</output>
		</layer>
		<layer id="90" name="__module.model.2.m.0.m.0/aten::add/Add/fq_output_0/input_high" type="Const" version="opset1">
			<data element_type="f32" shape="" offset="323696" size="4" />
			<output>
				<port id="0" precision="FP32" />
			</output>
		</layer>
		<layer id="91" name="__module.model.2.m.0.m.0/aten::add/Add/fq_output_0/output_low" type="Const" version="opset1">
			<data element_type="f32" shape="" offset="323692" size="4" />
			<output>
				<port id="0" precision="FP32" />
			</output>
		</layer>
		<layer id="92" name="__module.model.2.m.0.m.0/aten::add/Add/fq_output_0/output_high" type="Const" version="opset1">
			<data element_type="f32" shape="" offset="323696" size="4" />
			<output>
				<port id="0" precision="FP32" />
			</output>
		</layer>
		<layer id="93" name="__module.model.2.m.0.m.0/aten::add/Add/fq_output_0" type="FakeQuantize" version="opset1">
			<data levels="256" auto_broadcast="numpy" />
			<input>
				<port id="0" precision="FP32">
					<dim>1</dim>
					<dim>48</dim>
					<dim>160</dim>
					<dim>160</dim>
				</port>
				<port id="1" precision="FP32" />
				<port id="2" precision="FP32" />
				<port id="3" precision="FP32" />
				<port id="4" precision="FP32" />
			</input>
			<output>
				<port id="5" precision="FP32">
					<dim>1</dim>
					<dim>48</dim>
					<dim>160</dim>
					<dim>160</dim>
				</port>
			</output>
		</layer>
		<layer id="94" name="Constant_873560" type="Const" version="opset1">
			<data element_type="i8" shape="48, 48, 3, 3" offset="323700" size="20736" />
			<output>
				<port id="0" precision="I8">
					<dim>48</dim>
					<dim>48</dim>
					<dim>3</dim>
					<dim>3</dim>
				</port>
			</output>
		</layer>
		<layer id="95" name="Convert_873561" type="Convert" version="opset1">
			<data destination_type="f32" />
			<input>
				<port id="0" precision="I8">
					<dim>48</dim>
					<dim>48</dim>
					<dim>3</dim>
					<dim>3</dim>
				</port>
			</input>
			<output>
				<port id="1" precision="FP32">
					<dim>48</dim>
					<dim>48</dim>
					<dim>3</dim>
					<dim>3</dim>
				</port>
			</output>
		</layer>
		<layer id="96" name="Constant_873562" type="Const" version="opset1">
			<data element_type="f32" shape="48, 1, 1, 1" offset="344436" size="192" />
			<output>
				<port id="0" precision="FP32">
					<dim>48</dim>
					<dim>1</dim>
					<dim>1</dim>
					<dim>1</dim>
				</port>
			</output>
		</layer>
		<layer id="97" name="__module.model.2.m.0.m.1.cv1.conv/aten::_convolution/Convolution/fq_weights_1" type="Multiply" version="opset1">
			<data auto_broadcast="numpy" />
			<input>
				<port id="0" precision="FP32">
					<dim>48</dim>
					<dim>48</dim>
					<dim>3</dim>
					<dim>3</dim>
				</port>
				<port id="1" precision="FP32">
					<dim>48</dim>
					<dim>1</dim>
					<dim>1</dim>
					<dim>1</dim>
				</port>
			</input>
			<output>
				<port id="2" precision="FP32">
					<dim>48</dim>
					<dim>48</dim>
					<dim>3</dim>
					<dim>3</dim>
				</port>
			</output>
		</layer>
		<layer id="98" name="__module.model.2.m.0.m.1.cv1.conv/aten::_convolution/Convolution" type="Convolution" version="opset1">
			<data strides="1, 1" dilations="1, 1" pads_begin="1, 1" pads_end="1, 1" auto_pad="explicit" />
			<input>
				<port id="0" precision="FP32">
					<dim>1</dim>
					<dim>48</dim>
					<dim>160</dim>
					<dim>160</dim>
				</port>
				<port id="1" precision="FP32">
					<dim>48</dim>
					<dim>48</dim>
					<dim>3</dim>
					<dim>3</dim>
				</port>
			</input>
			<output>
				<port id="2" precision="FP32">
					<dim>1</dim>
					<dim>48</dim>
					<dim>160</dim>
					<dim>160</dim>
				</port>
			</output>
		</layer>
		<layer id="99" name="__module.model.2.m.0.m.1.cv1.conv/aten::_convolution/Reshape" type="Const" version="opset1">
			<data element_type="f32" shape="1, 48, 1, 1" offset="344628" size="192" />
			<output>
				<port id="0" precision="FP32">
					<dim>1</dim>
					<dim>48</dim>
					<dim>1</dim>
					<dim>1</dim>
				</port>
			</output>
		</layer>
		<layer id="100" name="__module.model.2.m.0.m.1.cv1.conv/aten::_convolution/Add" type="Add" version="opset1">
			<data auto_broadcast="numpy" />
			<input>
				<port id="0" precision="FP32">
					<dim>1</dim>
					<dim>48</dim>
					<dim>160</dim>
					<dim>160</dim>
				</port>
				<port id="1" precision="FP32">
					<dim>1</dim>
					<dim>48</dim>
					<dim>1</dim>
					<dim>1</dim>
				</port>
			</input>
			<output>
				<port id="2" precision="FP32" names="179_1">
					<dim>1</dim>
					<dim>48</dim>
					<dim>160</dim>
					<dim>160</dim>
				</port>
			</output>
		</layer>
		<layer id="101" name="__module.model.22.m.0.1.ffn.0.act/aten::silu_/Swish_6" type="Swish" version="opset4">
			<input>
				<port id="0" precision="FP32">
					<dim>1</dim>
					<dim>48</dim>
					<dim>160</dim>
					<dim>160</dim>
				</port>
			</input>
			<output>
				<port id="1" precision="FP32" names="179,input.25">
					<dim>1</dim>
					<dim>48</dim>
					<dim>160</dim>
					<dim>160</dim>
				</port>
			</output>
		</layer>
		<layer id="102" name="__module.model.22.m.0.1.ffn.0.act/aten::silu_/Swish_6/fq_output_0/input_low" type="Const" version="opset1">
			<data element_type="f32" shape="" offset="238000" size="4" />
			<output>
				<port id="0" precision="FP32" />
			</output>
		</layer>
		<layer id="103" name="__module.model.22.m.0.1.ffn.0.act/aten::silu_/Swish_6/fq_output_0/input_high" type="Const" version="opset1">
			<data element_type="f32" shape="" offset="323688" size="4" />
			<output>
				<port id="0" precision="FP32" />
			</output>
		</layer>
		<layer id="104" name="__module.model.22.m.0.1.ffn.0.act/aten::silu_/Swish_6/fq_output_0/output_low" type="Const" version="opset1">
			<data element_type="f32" shape="" offset="238000" size="4" />
			<output>
				<port id="0" precision="FP32" />
			</output>
		</layer>
		<layer id="105" name="__module.model.22.m.0.1.ffn.0.act/aten::silu_/Swish_6/fq_output_0/output_high" type="Const" version="opset1">
			<data element_type="f32" shape="" offset="323688" size="4" />
			<output>
				<port id="0" precision="FP32" />
			</output>
		</layer>
		<layer id="106" name="__module.model.22.m.0.1.ffn.0.act/aten::silu_/Swish_6/fq_output_0" type="FakeQuantize" version="opset1">
			<data levels="256" auto_broadcast="numpy" />
			<input>
				<port id="0" precision="FP32">
					<dim>1</dim>
					<dim>48</dim>
					<dim>160</dim>
					<dim>160</dim>
				</port>
				<port id="1" precision="FP32" />
				<port id="2" precision="FP32" />
				<port id="3" precision="FP32" />
				<port id="4" precision="FP32" />
			</input>
			<output>
				<port id="5" precision="FP32">
					<dim>1</dim>
					<dim>48</dim>
					<dim>160</dim>
					<dim>160</dim>
				</port>
			</output>
		</layer>
		<layer id="107" name="Constant_873564" type="Const" version="opset1">
			<data element_type="i8" shape="48, 48, 3, 3" offset="344820" size="20736" />
			<output>
				<port id="0" precision="I8">
					<dim>48</dim>
					<dim>48</dim>
					<dim>3</dim>
					<dim>3</dim>
				</port>
			</output>
		</layer>
		<layer id="108" name="Convert_873565" type="Convert" version="opset1">
			<data destination_type="f32" />
			<input>
				<port id="0" precision="I8">
					<dim>48</dim>
					<dim>48</dim>
					<dim>3</dim>
					<dim>3</dim>
				</port>
			</input>
			<output>
				<port id="1" precision="FP32">
					<dim>48</dim>
					<dim>48</dim>
					<dim>3</dim>
					<dim>3</dim>
				</port>
			</output>
		</layer>
		<layer id="109" name="Constant_873566" type="Const" version="opset1">
			<data element_type="f32" shape="48, 1, 1, 1" offset="365556" size="192" />
			<output>
				<port id="0" precision="FP32">
					<dim>48</dim>
					<dim>1</dim>
					<dim>1</dim>
					<dim>1</dim>
				</port>
			</output>
		</layer>
		<layer id="110" name="__module.model.2.m.0.m.1.cv2.conv/aten::_convolution/Convolution/fq_weights_1" type="Multiply" version="opset1">
			<data auto_broadcast="numpy" />
			<input>
				<port id="0" precision="FP32">
					<dim>48</dim>
					<dim>48</dim>
					<dim>3</dim>
					<dim>3</dim>
				</port>
				<port id="1" precision="FP32">
					<dim>48</dim>
					<dim>1</dim>
					<dim>1</dim>
					<dim>1</dim>
				</port>
			</input>
			<output>
				<port id="2" precision="FP32">
					<dim>48</dim>
					<dim>48</dim>
					<dim>3</dim>
					<dim>3</dim>
				</port>
			</output>
		</layer>
		<layer id="111" name="__module.model.2.m.0.m.1.cv2.conv/aten::_convolution/Convolution" type="Convolution" version="opset1">
			<data strides="1, 1" dilations="1, 1" pads_begin="1, 1" pads_end="1, 1" auto_pad="explicit" />
			<input>
				<port id="0" precision="FP32">
					<dim>1</dim>
					<dim>48</dim>
					<dim>160</dim>
					<dim>160</dim>
				</port>
				<port id="1" precision="FP32">
					<dim>48</dim>
					<dim>48</dim>
					<dim>3</dim>
					<dim>3</dim>
				</port>
			</input>
			<output>
				<port id="2" precision="FP32">
					<dim>1</dim>
					<dim>48</dim>
					<dim>160</dim>
					<dim>160</dim>
				</port>
			</output>
		</layer>
		<layer id="112" name="__module.model.2.m.0.m.1.cv2.conv/aten::_convolution/Reshape" type="Const" version="opset1">
			<data element_type="f32" shape="1, 48, 1, 1" offset="365748" size="192" />
			<output>
				<port id="0" precision="FP32">
					<dim>1</dim>
					<dim>48</dim>
					<dim>1</dim>
					<dim>1</dim>
				</port>
			</output>
		</layer>
		<layer id="113" name="__module.model.2.m.0.m.1.cv2.conv/aten::_convolution/Add" type="Add" version="opset1">
			<data auto_broadcast="numpy" />
			<input>
				<port id="0" precision="FP32">
					<dim>1</dim>
					<dim>48</dim>
					<dim>160</dim>
					<dim>160</dim>
				</port>
				<port id="1" precision="FP32">
					<dim>1</dim>
					<dim>48</dim>
					<dim>1</dim>
					<dim>1</dim>
				</port>
			</input>
			<output>
				<port id="2" precision="FP32" names="188_1">
					<dim>1</dim>
					<dim>48</dim>
					<dim>160</dim>
					<dim>160</dim>
				</port>
			</output>
		</layer>
		<layer id="114" name="__module.model.22.m.0.1.ffn.0.act/aten::silu_/Swish_7" type="Swish" version="opset4">
			<input>
				<port id="0" precision="FP32">
					<dim>1</dim>
					<dim>48</dim>
					<dim>160</dim>
					<dim>160</dim>
				</port>
			</input>
			<output>
				<port id="1" precision="FP32" names="188,input.29">
					<dim>1</dim>
					<dim>48</dim>
					<dim>160</dim>
					<dim>160</dim>
				</port>
			</output>
		</layer>
		<layer id="115" name="__module.model.22.m.0.1.ffn.0.act/aten::silu_/Swish_7/fq_output_0/input_low" type="Const" version="opset1">
			<data element_type="f32" shape="" offset="238000" size="4" />
			<output>
				<port id="0" precision="FP32" />
			</output>
		</layer>
		<layer id="116" name="__module.model.22.m.0.1.ffn.0.act/aten::silu_/Swish_7/fq_output_0/input_high" type="Const" version="opset1">
			<data element_type="f32" shape="" offset="365940" size="4" />
			<output>
				<port id="0" precision="FP32" />
			</output>
		</layer>
		<layer id="117" name="__module.model.22.m.0.1.ffn.0.act/aten::silu_/Swish_7/fq_output_0/output_low" type="Const" version="opset1">
			<data element_type="f32" shape="" offset="238000" size="4" />
			<output>
				<port id="0" precision="FP32" />
			</output>
		</layer>
		<layer id="118" name="__module.model.22.m.0.1.ffn.0.act/aten::silu_/Swish_7/fq_output_0/output_high" type="Const" version="opset1">
			<data element_type="f32" shape="" offset="365940" size="4" />
			<output>
				<port id="0" precision="FP32" />
			</output>
		</layer>
		<layer id="119" name="__module.model.22.m.0.1.ffn.0.act/aten::silu_/Swish_7/fq_output_0" type="FakeQuantize" version="opset1">
			<data levels="256" auto_broadcast="numpy" />
			<input>
				<port id="0" precision="FP32">
					<dim>1</dim>
					<dim>48</dim>
					<dim>160</dim>
					<dim>160</dim>
				</port>
				<port id="1" precision="FP32" />
				<port id="2" precision="FP32" />
				<port id="3" precision="FP32" />
				<port id="4" precision="FP32" />
			</input>
			<output>
				<port id="5" precision="FP32">
					<dim>1</dim>
					<dim>48</dim>
					<dim>160</dim>
					<dim>160</dim>
				</port>
			</output>
		</layer>
		<layer id="120" name="__module.model.2.m.0.m.1/aten::add/Add" type="Add" version="opset1">
			<data auto_broadcast="numpy" />
			<input>
				<port id="0" precision="FP32">
					<dim>1</dim>
					<dim>48</dim>
					<dim>160</dim>
					<dim>160</dim>
				</port>
				<port id="1" precision="FP32">
					<dim>1</dim>
					<dim>48</dim>
					<dim>160</dim>
					<dim>160</dim>
				</port>
			</input>
			<output>
				<port id="2" precision="FP32" names="190">
					<dim>1</dim>
					<dim>48</dim>
					<dim>160</dim>
					<dim>160</dim>
				</port>
			</output>
		</layer>
		<layer id="121" name="__module.model.2.m.0.m.1/aten::add/Add/fq_output_0/input_low" type="Const" version="opset1">
			<data element_type="f32" shape="" offset="365944" size="4" />
			<output>
				<port id="0" precision="FP32" />
			</output>
		</layer>
		<layer id="122" name="__module.model.2.m.0.m.1/aten::add/Add/fq_output_0/input_high" type="Const" version="opset1">
			<data element_type="f32" shape="" offset="365948" size="4" />
			<output>
				<port id="0" precision="FP32" />
			</output>
		</layer>
		<layer id="123" name="__module.model.2.m.0.m.1/aten::add/Add/fq_output_0/output_low" type="Const" version="opset1">
			<data element_type="f32" shape="" offset="365944" size="4" />
			<output>
				<port id="0" precision="FP32" />
			</output>
		</layer>
		<layer id="124" name="__module.model.2.m.0.m.1/aten::add/Add/fq_output_0/output_high" type="Const" version="opset1">
			<data element_type="f32" shape="" offset="365948" size="4" />
			<output>
				<port id="0" precision="FP32" />
			</output>
		</layer>
		<layer id="125" name="__module.model.2.m.0.m.1/aten::add/Add/fq_output_0" type="FakeQuantize" version="opset1">
			<data levels="256" auto_broadcast="numpy" />
			<input>
				<port id="0" precision="FP32">
					<dim>1</dim>
					<dim>48</dim>
					<dim>160</dim>
					<dim>160</dim>
				</port>
				<port id="1" precision="FP32" />
				<port id="2" precision="FP32" />
				<port id="3" precision="FP32" />
				<port id="4" precision="FP32" />
			</input>
			<output>
				<port id="5" precision="FP32">
					<dim>1</dim>
					<dim>48</dim>
					<dim>160</dim>
					<dim>160</dim>
				</port>
			</output>
		</layer>
		<layer id="126" name="Constant_873568" type="Const" version="opset1">
			<data element_type="i8" shape="48, 96, 1, 1" offset="365952" size="4608" />
			<output>
				<port id="0" precision="I8">
					<dim>48</dim>
					<dim>96</dim>
					<dim>1</dim>
					<dim>1</dim>
				</port>
			</output>
		</layer>
		<layer id="127" name="Convert_873569" type="Convert" version="opset1">
			<data destination_type="f32" />
			<input>
				<port id="0" precision="I8">
					<dim>48</dim>
					<dim>96</dim>
					<dim>1</dim>
					<dim>1</dim>
				</port>
			</input>
			<output>
				<port id="1" precision="FP32">
					<dim>48</dim>
					<dim>96</dim>
					<dim>1</dim>
					<dim>1</dim>
				</port>
			</output>
		</layer>
		<layer id="128" name="Constant_873570" type="Const" version="opset1">
			<data element_type="f32" shape="48, 1, 1, 1" offset="370560" size="192" />
			<output>
				<port id="0" precision="FP32">
					<dim>48</dim>
					<dim>1</dim>
					<dim>1</dim>
					<dim>1</dim>
				</port>
			</output>
		</layer>
		<layer id="129" name="__module.model.2.m.0.cv2.conv/aten::_convolution/Convolution/fq_weights_1" type="Multiply" version="opset1">
			<data auto_broadcast="numpy" />
			<input>
				<port id="0" precision="FP32">
					<dim>48</dim>
					<dim>96</dim>
					<dim>1</dim>
					<dim>1</dim>
				</port>
				<port id="1" precision="FP32">
					<dim>48</dim>
					<dim>1</dim>
					<dim>1</dim>
					<dim>1</dim>
				</port>
			</input>
			<output>
				<port id="2" precision="FP32">
					<dim>48</dim>
					<dim>96</dim>
					<dim>1</dim>
					<dim>1</dim>
				</port>
			</output>
		</layer>
		<layer id="130" name="__module.model.2.m.0.cv2.conv/aten::_convolution/Convolution" type="Convolution" version="opset1">
			<data strides="1, 1" dilations="1, 1" pads_begin="0, 0" pads_end="0, 0" auto_pad="explicit" />
			<input>
				<port id="0" precision="FP32">
					<dim>1</dim>
					<dim>96</dim>
					<dim>160</dim>
					<dim>160</dim>
				</port>
				<port id="1" precision="FP32">
					<dim>48</dim>
					<dim>96</dim>
					<dim>1</dim>
					<dim>1</dim>
				</port>
			</input>
			<output>
				<port id="2" precision="FP32">
					<dim>1</dim>
					<dim>48</dim>
					<dim>160</dim>
					<dim>160</dim>
				</port>
			</output>
		</layer>
		<layer id="131" name="__module.model.2.m.0.cv2.conv/aten::_convolution/Reshape" type="Const" version="opset1">
			<data element_type="f32" shape="1, 48, 1, 1" offset="370752" size="192" />
			<output>
				<port id="0" precision="FP32">
					<dim>1</dim>
					<dim>48</dim>
					<dim>1</dim>
					<dim>1</dim>
				</port>
			</output>
		</layer>
		<layer id="132" name="__module.model.2.m.0.cv2.conv/aten::_convolution/Add" type="Add" version="opset1">
			<data auto_broadcast="numpy" />
			<input>
				<port id="0" precision="FP32">
					<dim>1</dim>
					<dim>48</dim>
					<dim>160</dim>
					<dim>160</dim>
				</port>
				<port id="1" precision="FP32">
					<dim>1</dim>
					<dim>48</dim>
					<dim>1</dim>
					<dim>1</dim>
				</port>
			</input>
			<output>
				<port id="2" precision="FP32" names="198_1">
					<dim>1</dim>
					<dim>48</dim>
					<dim>160</dim>
					<dim>160</dim>
				</port>
			</output>
		</layer>
		<layer id="133" name="__module.model.22.m.0.1.ffn.0.act/aten::silu_/Swish_8" type="Swish" version="opset4">
			<input>
				<port id="0" precision="FP32">
					<dim>1</dim>
					<dim>48</dim>
					<dim>160</dim>
					<dim>160</dim>
				</port>
			</input>
			<output>
				<port id="1" precision="FP32" names="198,input.31">
					<dim>1</dim>
					<dim>48</dim>
					<dim>160</dim>
					<dim>160</dim>
				</port>
			</output>
		</layer>
		<layer id="134" name="__module.model.22.m.0.1.ffn.0.act/aten::silu_/Swish_8/fq_output_0/input_low" type="Const" version="opset1">
			<data element_type="f32" shape="" offset="365944" size="4" />
			<output>
				<port id="0" precision="FP32" />
			</output>
		</layer>
		<layer id="135" name="__module.model.22.m.0.1.ffn.0.act/aten::silu_/Swish_8/fq_output_0/input_high" type="Const" version="opset1">
			<data element_type="f32" shape="" offset="365948" size="4" />
			<output>
				<port id="0" precision="FP32" />
			</output>
		</layer>
		<layer id="136" name="__module.model.22.m.0.1.ffn.0.act/aten::silu_/Swish_8/fq_output_0/output_low" type="Const" version="opset1">
			<data element_type="f32" shape="" offset="365944" size="4" />
			<output>
				<port id="0" precision="FP32" />
			</output>
		</layer>
		<layer id="137" name="__module.model.22.m.0.1.ffn.0.act/aten::silu_/Swish_8/fq_output_0/output_high" type="Const" version="opset1">
			<data element_type="f32" shape="" offset="365948" size="4" />
			<output>
				<port id="0" precision="FP32" />
			</output>
		</layer>
		<layer id="138" name="__module.model.22.m.0.1.ffn.0.act/aten::silu_/Swish_8/fq_output_0" type="FakeQuantize" version="opset1">
			<data levels="256" auto_broadcast="numpy" />
			<input>
				<port id="0" precision="FP32">
					<dim>1</dim>
					<dim>48</dim>
					<dim>160</dim>
					<dim>160</dim>
				</port>
				<port id="1" precision="FP32" />
				<port id="2" precision="FP32" />
				<port id="3" precision="FP32" />
				<port id="4" precision="FP32" />
			</input>
			<output>
				<port id="5" precision="FP32">
					<dim>1</dim>
					<dim>48</dim>
					<dim>160</dim>
					<dim>160</dim>
				</port>
			</output>
		</layer>
		<layer id="139" name="__module.model.2.m.0/aten::cat/Concat" type="Concat" version="opset1">
			<data axis="1" />
			<input>
				<port id="0" precision="FP32">
					<dim>1</dim>
					<dim>48</dim>
					<dim>160</dim>
					<dim>160</dim>
				</port>
				<port id="1" precision="FP32">
					<dim>1</dim>
					<dim>48</dim>
					<dim>160</dim>
					<dim>160</dim>
				</port>
			</input>
			<output>
				<port id="2" precision="FP32" names="201,input.33">
					<dim>1</dim>
					<dim>96</dim>
					<dim>160</dim>
					<dim>160</dim>
				</port>
			</output>
		</layer>
		<layer id="140" name="Constant_873572" type="Const" version="opset1">
			<data element_type="i8" shape="96, 96, 1, 1" offset="370944" size="9216" />
			<output>
				<port id="0" precision="I8">
					<dim>96</dim>
					<dim>96</dim>
					<dim>1</dim>
					<dim>1</dim>
				</port>
			</output>
		</layer>
		<layer id="141" name="Convert_873573" type="Convert" version="opset1">
			<data destination_type="f32" />
			<input>
				<port id="0" precision="I8">
					<dim>96</dim>
					<dim>96</dim>
					<dim>1</dim>
					<dim>1</dim>
				</port>
			</input>
			<output>
				<port id="1" precision="FP32">
					<dim>96</dim>
					<dim>96</dim>
					<dim>1</dim>
					<dim>1</dim>
				</port>
			</output>
		</layer>
		<layer id="142" name="Constant_873574" type="Const" version="opset1">
			<data element_type="f32" shape="96, 1, 1, 1" offset="380160" size="384" />
			<output>
				<port id="0" precision="FP32">
					<dim>96</dim>
					<dim>1</dim>
					<dim>1</dim>
					<dim>1</dim>
				</port>
			</output>
		</layer>
		<layer id="143" name="__module.model.2.m.0.cv3.conv/aten::_convolution/Convolution/fq_weights_1" type="Multiply" version="opset1">
			<data auto_broadcast="numpy" />
			<input>
				<port id="0" precision="FP32">
					<dim>96</dim>
					<dim>96</dim>
					<dim>1</dim>
					<dim>1</dim>
				</port>
				<port id="1" precision="FP32">
					<dim>96</dim>
					<dim>1</dim>
					<dim>1</dim>
					<dim>1</dim>
				</port>
			</input>
			<output>
				<port id="2" precision="FP32">
					<dim>96</dim>
					<dim>96</dim>
					<dim>1</dim>
					<dim>1</dim>
				</port>
			</output>
		</layer>
		<layer id="144" name="__module.model.2.m.0.cv3.conv/aten::_convolution/Convolution" type="Convolution" version="opset1">
			<data strides="1, 1" dilations="1, 1" pads_begin="0, 0" pads_end="0, 0" auto_pad="explicit" />
			<input>
				<port id="0" precision="FP32">
					<dim>1</dim>
					<dim>96</dim>
					<dim>160</dim>
					<dim>160</dim>
				</port>
				<port id="1" precision="FP32">
					<dim>96</dim>
					<dim>96</dim>
					<dim>1</dim>
					<dim>1</dim>
				</port>
			</input>
			<output>
				<port id="2" precision="FP32">
					<dim>1</dim>
					<dim>96</dim>
					<dim>160</dim>
					<dim>160</dim>
				</port>
			</output>
		</layer>
		<layer id="145" name="__module.model.2.m.0.cv3.conv/aten::_convolution/Reshape" type="Const" version="opset1">
			<data element_type="f32" shape="1, 96, 1, 1" offset="380544" size="384" />
			<output>
				<port id="0" precision="FP32">
					<dim>1</dim>
					<dim>96</dim>
					<dim>1</dim>
					<dim>1</dim>
				</port>
			</output>
		</layer>
		<layer id="146" name="__module.model.2.m.0.cv3.conv/aten::_convolution/Add" type="Add" version="opset1">
			<data auto_broadcast="numpy" />
			<input>
				<port id="0" precision="FP32">
					<dim>1</dim>
					<dim>96</dim>
					<dim>160</dim>
					<dim>160</dim>
				</port>
				<port id="1" precision="FP32">
					<dim>1</dim>
					<dim>96</dim>
					<dim>1</dim>
					<dim>1</dim>
				</port>
			</input>
			<output>
				<port id="2" precision="FP32" names="209_1">
					<dim>1</dim>
					<dim>96</dim>
					<dim>160</dim>
					<dim>160</dim>
				</port>
			</output>
		</layer>
		<layer id="147" name="__module.model.22.m.0.1.ffn.0.act/aten::silu_/Swish_9" type="Swish" version="opset4">
			<input>
				<port id="0" precision="FP32">
					<dim>1</dim>
					<dim>96</dim>
					<dim>160</dim>
					<dim>160</dim>
				</port>
			</input>
			<output>
				<port id="1" precision="FP32" names="209,input.35">
					<dim>1</dim>
					<dim>96</dim>
					<dim>160</dim>
					<dim>160</dim>
				</port>
			</output>
		</layer>
		<layer id="148" name="__module.model.22.m.0.1.ffn.0.act/aten::silu_/Swish_9/fq_output_0/input_low" type="Const" version="opset1">
			<data element_type="f32" shape="" offset="276408" size="4" />
			<output>
				<port id="0" precision="FP32" />
			</output>
		</layer>
		<layer id="149" name="__module.model.22.m.0.1.ffn.0.act/aten::silu_/Swish_9/fq_output_0/input_high" type="Const" version="opset1">
			<data element_type="f32" shape="" offset="276412" size="4" />
			<output>
				<port id="0" precision="FP32" />
			</output>
		</layer>
		<layer id="150" name="__module.model.22.m.0.1.ffn.0.act/aten::silu_/Swish_9/fq_output_0/output_low" type="Const" version="opset1">
			<data element_type="f32" shape="" offset="276408" size="4" />
			<output>
				<port id="0" precision="FP32" />
			</output>
		</layer>
		<layer id="151" name="__module.model.22.m.0.1.ffn.0.act/aten::silu_/Swish_9/fq_output_0/output_high" type="Const" version="opset1">
			<data element_type="f32" shape="" offset="276412" size="4" />
			<output>
				<port id="0" precision="FP32" />
			</output>
		</layer>
		<layer id="152" name="__module.model.22.m.0.1.ffn.0.act/aten::silu_/Swish_9/fq_output_0" type="FakeQuantize" version="opset1">
			<data levels="256" auto_broadcast="numpy" />
			<input>
				<port id="0" precision="FP32">
					<dim>1</dim>
					<dim>96</dim>
					<dim>160</dim>
					<dim>160</dim>
				</port>
				<port id="1" precision="FP32" />
				<port id="2" precision="FP32" />
				<port id="3" precision="FP32" />
				<port id="4" precision="FP32" />
			</input>
			<output>
				<port id="5" precision="FP32">
					<dim>1</dim>
					<dim>96</dim>
					<dim>160</dim>
					<dim>160</dim>
				</port>
			</output>
		</layer>
		<layer id="153" name="Constant_873576" type="Const" version="opset1">
			<data element_type="i8" shape="48, 96, 1, 1" offset="380928" size="4608" />
			<output>
				<port id="0" precision="I8">
					<dim>48</dim>
					<dim>96</dim>
					<dim>1</dim>
					<dim>1</dim>
				</port>
			</output>
		</layer>
		<layer id="154" name="Convert_873577" type="Convert" version="opset1">
			<data destination_type="f32" />
			<input>
				<port id="0" precision="I8">
					<dim>48</dim>
					<dim>96</dim>
					<dim>1</dim>
					<dim>1</dim>
				</port>
			</input>
			<output>
				<port id="1" precision="FP32">
					<dim>48</dim>
					<dim>96</dim>
					<dim>1</dim>
					<dim>1</dim>
				</port>
			</output>
		</layer>
		<layer id="155" name="Constant_873578" type="Const" version="opset1">
			<data element_type="f32" shape="48, 1, 1, 1" offset="385536" size="192" />
			<output>
				<port id="0" precision="FP32">
					<dim>48</dim>
					<dim>1</dim>
					<dim>1</dim>
					<dim>1</dim>
				</port>
			</output>
		</layer>
		<layer id="156" name="__module.model.2.m.1.cv1.conv/aten::_convolution/Convolution/fq_weights_1" type="Multiply" version="opset1">
			<data auto_broadcast="numpy" />
			<input>
				<port id="0" precision="FP32">
					<dim>48</dim>
					<dim>96</dim>
					<dim>1</dim>
					<dim>1</dim>
				</port>
				<port id="1" precision="FP32">
					<dim>48</dim>
					<dim>1</dim>
					<dim>1</dim>
					<dim>1</dim>
				</port>
			</input>
			<output>
				<port id="2" precision="FP32">
					<dim>48</dim>
					<dim>96</dim>
					<dim>1</dim>
					<dim>1</dim>
				</port>
			</output>
		</layer>
		<layer id="157" name="__module.model.2.m.1.cv1.conv/aten::_convolution/Convolution" type="Convolution" version="opset1">
			<data strides="1, 1" dilations="1, 1" pads_begin="0, 0" pads_end="0, 0" auto_pad="explicit" />
			<input>
				<port id="0" precision="FP32">
					<dim>1</dim>
					<dim>96</dim>
					<dim>160</dim>
					<dim>160</dim>
				</port>
				<port id="1" precision="FP32">
					<dim>48</dim>
					<dim>96</dim>
					<dim>1</dim>
					<dim>1</dim>
				</port>
			</input>
			<output>
				<port id="2" precision="FP32">
					<dim>1</dim>
					<dim>48</dim>
					<dim>160</dim>
					<dim>160</dim>
				</port>
			</output>
		</layer>
		<layer id="158" name="__module.model.2.m.1.cv1.conv/aten::_convolution/Reshape" type="Const" version="opset1">
			<data element_type="f32" shape="1, 48, 1, 1" offset="385728" size="192" />
			<output>
				<port id="0" precision="FP32">
					<dim>1</dim>
					<dim>48</dim>
					<dim>1</dim>
					<dim>1</dim>
				</port>
			</output>
		</layer>
		<layer id="159" name="__module.model.2.m.1.cv1.conv/aten::_convolution/Add" type="Add" version="opset1">
			<data auto_broadcast="numpy" />
			<input>
				<port id="0" precision="FP32">
					<dim>1</dim>
					<dim>48</dim>
					<dim>160</dim>
					<dim>160</dim>
				</port>
				<port id="1" precision="FP32">
					<dim>1</dim>
					<dim>48</dim>
					<dim>1</dim>
					<dim>1</dim>
				</port>
			</input>
			<output>
				<port id="2" precision="FP32" names="222_1">
					<dim>1</dim>
					<dim>48</dim>
					<dim>160</dim>
					<dim>160</dim>
				</port>
			</output>
		</layer>
		<layer id="160" name="__module.model.22.m.0.1.ffn.0.act/aten::silu_/Swish_10" type="Swish" version="opset4">
			<input>
				<port id="0" precision="FP32">
					<dim>1</dim>
					<dim>48</dim>
					<dim>160</dim>
					<dim>160</dim>
				</port>
			</input>
			<output>
				<port id="1" precision="FP32" names="222,input.39">
					<dim>1</dim>
					<dim>48</dim>
					<dim>160</dim>
					<dim>160</dim>
				</port>
			</output>
		</layer>
		<layer id="161" name="__module.model.22.m.0.1.ffn.0.act/aten::silu_/Swish_10/fq_output_0/input_low" type="Const" version="opset1">
			<data element_type="f32" shape="" offset="385920" size="4" />
			<output>
				<port id="0" precision="FP32" />
			</output>
		</layer>
		<layer id="162" name="__module.model.22.m.0.1.ffn.0.act/aten::silu_/Swish_10/fq_output_0/input_high" type="Const" version="opset1">
			<data element_type="f32" shape="" offset="385924" size="4" />
			<output>
				<port id="0" precision="FP32" />
			</output>
		</layer>
		<layer id="163" name="__module.model.22.m.0.1.ffn.0.act/aten::silu_/Swish_10/fq_output_0/output_low" type="Const" version="opset1">
			<data element_type="f32" shape="" offset="385920" size="4" />
			<output>
				<port id="0" precision="FP32" />
			</output>
		</layer>
		<layer id="164" name="__module.model.22.m.0.1.ffn.0.act/aten::silu_/Swish_10/fq_output_0/output_high" type="Const" version="opset1">
			<data element_type="f32" shape="" offset="385924" size="4" />
			<output>
				<port id="0" precision="FP32" />
			</output>
		</layer>
		<layer id="165" name="__module.model.22.m.0.1.ffn.0.act/aten::silu_/Swish_10/fq_output_0" type="FakeQuantize" version="opset1">
			<data levels="256" auto_broadcast="numpy" />
			<input>
				<port id="0" precision="FP32">
					<dim>1</dim>
					<dim>48</dim>
					<dim>160</dim>
					<dim>160</dim>
				</port>
				<port id="1" precision="FP32" />
				<port id="2" precision="FP32" />
				<port id="3" precision="FP32" />
				<port id="4" precision="FP32" />
			</input>
			<output>
				<port id="5" precision="FP32">
					<dim>1</dim>
					<dim>48</dim>
					<dim>160</dim>
					<dim>160</dim>
				</port>
			</output>
		</layer>
		<layer id="166" name="Constant_873580" type="Const" version="opset1">
			<data element_type="i8" shape="48, 48, 3, 3" offset="385928" size="20736" />
			<output>
				<port id="0" precision="I8">
					<dim>48</dim>
					<dim>48</dim>
					<dim>3</dim>
					<dim>3</dim>
				</port>
			</output>
		</layer>
		<layer id="167" name="Convert_873581" type="Convert" version="opset1">
			<data destination_type="f32" />
			<input>
				<port id="0" precision="I8">
					<dim>48</dim>
					<dim>48</dim>
					<dim>3</dim>
					<dim>3</dim>
				</port>
			</input>
			<output>
				<port id="1" precision="FP32">
					<dim>48</dim>
					<dim>48</dim>
					<dim>3</dim>
					<dim>3</dim>
				</port>
			</output>
		</layer>
		<layer id="168" name="Constant_873582" type="Const" version="opset1">
			<data element_type="f32" shape="48, 1, 1, 1" offset="406664" size="192" />
			<output>
				<port id="0" precision="FP32">
					<dim>48</dim>
					<dim>1</dim>
					<dim>1</dim>
					<dim>1</dim>
				</port>
			</output>
		</layer>
		<layer id="169" name="__module.model.2.m.1.m.0.cv1.conv/aten::_convolution/Convolution/fq_weights_1" type="Multiply" version="opset1">
			<data auto_broadcast="numpy" />
			<input>
				<port id="0" precision="FP32">
					<dim>48</dim>
					<dim>48</dim>
					<dim>3</dim>
					<dim>3</dim>
				</port>
				<port id="1" precision="FP32">
					<dim>48</dim>
					<dim>1</dim>
					<dim>1</dim>
					<dim>1</dim>
				</port>
			</input>
			<output>
				<port id="2" precision="FP32">
					<dim>48</dim>
					<dim>48</dim>
					<dim>3</dim>
					<dim>3</dim>
				</port>
			</output>
		</layer>
		<layer id="170" name="__module.model.2.m.1.m.0.cv1.conv/aten::_convolution/Convolution" type="Convolution" version="opset1">
			<data strides="1, 1" dilations="1, 1" pads_begin="1, 1" pads_end="1, 1" auto_pad="explicit" />
			<input>
				<port id="0" precision="FP32">
					<dim>1</dim>
					<dim>48</dim>
					<dim>160</dim>
					<dim>160</dim>
				</port>
				<port id="1" precision="FP32">
					<dim>48</dim>
					<dim>48</dim>
					<dim>3</dim>
					<dim>3</dim>
				</port>
			</input>
			<output>
				<port id="2" precision="FP32">
					<dim>1</dim>
					<dim>48</dim>
					<dim>160</dim>
					<dim>160</dim>
				</port>
			</output>
		</layer>
		<layer id="171" name="__module.model.2.m.1.m.0.cv1.conv/aten::_convolution/Reshape" type="Const" version="opset1">
			<data element_type="f32" shape="1, 48, 1, 1" offset="406856" size="192" />
			<output>
				<port id="0" precision="FP32">
					<dim>1</dim>
					<dim>48</dim>
					<dim>1</dim>
					<dim>1</dim>
				</port>
			</output>
		</layer>
		<layer id="172" name="__module.model.2.m.1.m.0.cv1.conv/aten::_convolution/Add" type="Add" version="opset1">
			<data auto_broadcast="numpy" />
			<input>
				<port id="0" precision="FP32">
					<dim>1</dim>
					<dim>48</dim>
					<dim>160</dim>
					<dim>160</dim>
				</port>
				<port id="1" precision="FP32">
					<dim>1</dim>
					<dim>48</dim>
					<dim>1</dim>
					<dim>1</dim>
				</port>
			</input>
			<output>
				<port id="2" precision="FP32" names="235_1">
					<dim>1</dim>
					<dim>48</dim>
					<dim>160</dim>
					<dim>160</dim>
				</port>
			</output>
		</layer>
		<layer id="173" name="__module.model.22.m.0.1.ffn.0.act/aten::silu_/Swish_11" type="Swish" version="opset4">
			<input>
				<port id="0" precision="FP32">
					<dim>1</dim>
					<dim>48</dim>
					<dim>160</dim>
					<dim>160</dim>
				</port>
			</input>
			<output>
				<port id="1" precision="FP32" names="235,input.43">
					<dim>1</dim>
					<dim>48</dim>
					<dim>160</dim>
					<dim>160</dim>
				</port>
			</output>
		</layer>
		<layer id="174" name="__module.model.22.m.0.1.ffn.0.act/aten::silu_/Swish_11/fq_output_0/input_low" type="Const" version="opset1">
			<data element_type="f32" shape="" offset="238000" size="4" />
			<output>
				<port id="0" precision="FP32" />
			</output>
		</layer>
		<layer id="175" name="__module.model.22.m.0.1.ffn.0.act/aten::silu_/Swish_11/fq_output_0/input_high" type="Const" version="opset1">
			<data element_type="f32" shape="" offset="407048" size="4" />
			<output>
				<port id="0" precision="FP32" />
			</output>
		</layer>
		<layer id="176" name="__module.model.22.m.0.1.ffn.0.act/aten::silu_/Swish_11/fq_output_0/output_low" type="Const" version="opset1">
			<data element_type="f32" shape="" offset="238000" size="4" />
			<output>
				<port id="0" precision="FP32" />
			</output>
		</layer>
		<layer id="177" name="__module.model.22.m.0.1.ffn.0.act/aten::silu_/Swish_11/fq_output_0/output_high" type="Const" version="opset1">
			<data element_type="f32" shape="" offset="407048" size="4" />
			<output>
				<port id="0" precision="FP32" />
			</output>
		</layer>
		<layer id="178" name="__module.model.22.m.0.1.ffn.0.act/aten::silu_/Swish_11/fq_output_0" type="FakeQuantize" version="opset1">
			<data levels="256" auto_broadcast="numpy" />
			<input>
				<port id="0" precision="FP32">
					<dim>1</dim>
					<dim>48</dim>
					<dim>160</dim>
					<dim>160</dim>
				</port>
				<port id="1" precision="FP32" />
				<port id="2" precision="FP32" />
				<port id="3" precision="FP32" />
				<port id="4" precision="FP32" />
			</input>
			<output>
				<port id="5" precision="FP32">
					<dim>1</dim>
					<dim>48</dim>
					<dim>160</dim>
					<dim>160</dim>
				</port>
			</output>
		</layer>
		<layer id="179" name="Constant_873584" type="Const" version="opset1">
			<data element_type="i8" shape="48, 48, 3, 3" offset="407052" size="20736" />
			<output>
				<port id="0" precision="I8">
					<dim>48</dim>
					<dim>48</dim>
					<dim>3</dim>
					<dim>3</dim>
				</port>
			</output>
		</layer>
		<layer id="180" name="Convert_873585" type="Convert" version="opset1">
			<data destination_type="f32" />
			<input>
				<port id="0" precision="I8">
					<dim>48</dim>
					<dim>48</dim>
					<dim>3</dim>
					<dim>3</dim>
				</port>
			</input>
			<output>
				<port id="1" precision="FP32">
					<dim>48</dim>
					<dim>48</dim>
					<dim>3</dim>
					<dim>3</dim>
				</port>
			</output>
		</layer>
		<layer id="181" name="Constant_873586" type="Const" version="opset1">
			<data element_type="f32" shape="48, 1, 1, 1" offset="427788" size="192" />
			<output>
				<port id="0" precision="FP32">
					<dim>48</dim>
					<dim>1</dim>
					<dim>1</dim>
					<dim>1</dim>
				</port>
			</output>
		</layer>
		<layer id="182" name="__module.model.2.m.1.m.0.cv2.conv/aten::_convolution/Convolution/fq_weights_1" type="Multiply" version="opset1">
			<data auto_broadcast="numpy" />
			<input>
				<port id="0" precision="FP32">
					<dim>48</dim>
					<dim>48</dim>
					<dim>3</dim>
					<dim>3</dim>
				</port>
				<port id="1" precision="FP32">
					<dim>48</dim>
					<dim>1</dim>
					<dim>1</dim>
					<dim>1</dim>
				</port>
			</input>
			<output>
				<port id="2" precision="FP32">
					<dim>48</dim>
					<dim>48</dim>
					<dim>3</dim>
					<dim>3</dim>
				</port>
			</output>
		</layer>
		<layer id="183" name="__module.model.2.m.1.m.0.cv2.conv/aten::_convolution/Convolution" type="Convolution" version="opset1">
			<data strides="1, 1" dilations="1, 1" pads_begin="1, 1" pads_end="1, 1" auto_pad="explicit" />
			<input>
				<port id="0" precision="FP32">
					<dim>1</dim>
					<dim>48</dim>
					<dim>160</dim>
					<dim>160</dim>
				</port>
				<port id="1" precision="FP32">
					<dim>48</dim>
					<dim>48</dim>
					<dim>3</dim>
					<dim>3</dim>
				</port>
			</input>
			<output>
				<port id="2" precision="FP32">
					<dim>1</dim>
					<dim>48</dim>
					<dim>160</dim>
					<dim>160</dim>
				</port>
			</output>
		</layer>
		<layer id="184" name="__module.model.2.m.1.m.0.cv2.conv/aten::_convolution/Reshape" type="Const" version="opset1">
			<data element_type="f32" shape="1, 48, 1, 1" offset="427980" size="192" />
			<output>
				<port id="0" precision="FP32">
					<dim>1</dim>
					<dim>48</dim>
					<dim>1</dim>
					<dim>1</dim>
				</port>
			</output>
		</layer>
		<layer id="185" name="__module.model.2.m.1.m.0.cv2.conv/aten::_convolution/Add" type="Add" version="opset1">
			<data auto_broadcast="numpy" />
			<input>
				<port id="0" precision="FP32">
					<dim>1</dim>
					<dim>48</dim>
					<dim>160</dim>
					<dim>160</dim>
				</port>
				<port id="1" precision="FP32">
					<dim>1</dim>
					<dim>48</dim>
					<dim>1</dim>
					<dim>1</dim>
				</port>
			</input>
			<output>
				<port id="2" precision="FP32" names="244_1">
					<dim>1</dim>
					<dim>48</dim>
					<dim>160</dim>
					<dim>160</dim>
				</port>
			</output>
		</layer>
		<layer id="186" name="__module.model.22.m.0.1.ffn.0.act/aten::silu_/Swish_12" type="Swish" version="opset4">
			<input>
				<port id="0" precision="FP32">
					<dim>1</dim>
					<dim>48</dim>
					<dim>160</dim>
					<dim>160</dim>
				</port>
			</input>
			<output>
				<port id="1" precision="FP32" names="244,input.47">
					<dim>1</dim>
					<dim>48</dim>
					<dim>160</dim>
					<dim>160</dim>
				</port>
			</output>
		</layer>
		<layer id="187" name="__module.model.22.m.0.1.ffn.0.act/aten::silu_/Swish_12/fq_output_0/input_low" type="Const" version="opset1">
			<data element_type="f32" shape="" offset="238000" size="4" />
			<output>
				<port id="0" precision="FP32" />
			</output>
		</layer>
		<layer id="188" name="__module.model.22.m.0.1.ffn.0.act/aten::silu_/Swish_12/fq_output_0/input_high" type="Const" version="opset1">
			<data element_type="f32" shape="" offset="428172" size="4" />
			<output>
				<port id="0" precision="FP32" />
			</output>
		</layer>
		<layer id="189" name="__module.model.22.m.0.1.ffn.0.act/aten::silu_/Swish_12/fq_output_0/output_low" type="Const" version="opset1">
			<data element_type="f32" shape="" offset="238000" size="4" />
			<output>
				<port id="0" precision="FP32" />
			</output>
		</layer>
		<layer id="190" name="__module.model.22.m.0.1.ffn.0.act/aten::silu_/Swish_12/fq_output_0/output_high" type="Const" version="opset1">
			<data element_type="f32" shape="" offset="428172" size="4" />
			<output>
				<port id="0" precision="FP32" />
			</output>
		</layer>
		<layer id="191" name="__module.model.22.m.0.1.ffn.0.act/aten::silu_/Swish_12/fq_output_0" type="FakeQuantize" version="opset1">
			<data levels="256" auto_broadcast="numpy" />
			<input>
				<port id="0" precision="FP32">
					<dim>1</dim>
					<dim>48</dim>
					<dim>160</dim>
					<dim>160</dim>
				</port>
				<port id="1" precision="FP32" />
				<port id="2" precision="FP32" />
				<port id="3" precision="FP32" />
				<port id="4" precision="FP32" />
			</input>
			<output>
				<port id="5" precision="FP32">
					<dim>1</dim>
					<dim>48</dim>
					<dim>160</dim>
					<dim>160</dim>
				</port>
			</output>
		</layer>
		<layer id="192" name="__module.model.2.m.1.m.0/aten::add/Add" type="Add" version="opset1">
			<data auto_broadcast="numpy" />
			<input>
				<port id="0" precision="FP32">
					<dim>1</dim>
					<dim>48</dim>
					<dim>160</dim>
					<dim>160</dim>
				</port>
				<port id="1" precision="FP32">
					<dim>1</dim>
					<dim>48</dim>
					<dim>160</dim>
					<dim>160</dim>
				</port>
			</input>
			<output>
				<port id="2" precision="FP32" names="246,input.49">
					<dim>1</dim>
					<dim>48</dim>
					<dim>160</dim>
					<dim>160</dim>
				</port>
			</output>
		</layer>
		<layer id="193" name="__module.model.2.m.1.m.0/aten::add/Add/fq_output_0/input_low" type="Const" version="opset1">
			<data element_type="f32" shape="" offset="428176" size="4" />
			<output>
				<port id="0" precision="FP32" />
			</output>
		</layer>
		<layer id="194" name="__module.model.2.m.1.m.0/aten::add/Add/fq_output_0/input_high" type="Const" version="opset1">
			<data element_type="f32" shape="" offset="428180" size="4" />
			<output>
				<port id="0" precision="FP32" />
			</output>
		</layer>
		<layer id="195" name="__module.model.2.m.1.m.0/aten::add/Add/fq_output_0/output_low" type="Const" version="opset1">
			<data element_type="f32" shape="" offset="428176" size="4" />
			<output>
				<port id="0" precision="FP32" />
			</output>
		</layer>
		<layer id="196" name="__module.model.2.m.1.m.0/aten::add/Add/fq_output_0/output_high" type="Const" version="opset1">
			<data element_type="f32" shape="" offset="428180" size="4" />
			<output>
				<port id="0" precision="FP32" />
			</output>
		</layer>
		<layer id="197" name="__module.model.2.m.1.m.0/aten::add/Add/fq_output_0" type="FakeQuantize" version="opset1">
			<data levels="256" auto_broadcast="numpy" />
			<input>
				<port id="0" precision="FP32">
					<dim>1</dim>
					<dim>48</dim>
					<dim>160</dim>
					<dim>160</dim>
				</port>
				<port id="1" precision="FP32" />
				<port id="2" precision="FP32" />
				<port id="3" precision="FP32" />
				<port id="4" precision="FP32" />
			</input>
			<output>
				<port id="5" precision="FP32">
					<dim>1</dim>
					<dim>48</dim>
					<dim>160</dim>
					<dim>160</dim>
				</port>
			</output>
		</layer>
		<layer id="198" name="Constant_873588" type="Const" version="opset1">
			<data element_type="i8" shape="48, 48, 3, 3" offset="428184" size="20736" />
			<output>
				<port id="0" precision="I8">
					<dim>48</dim>
					<dim>48</dim>
					<dim>3</dim>
					<dim>3</dim>
				</port>
			</output>
		</layer>
		<layer id="199" name="Convert_873589" type="Convert" version="opset1">
			<data destination_type="f32" />
			<input>
				<port id="0" precision="I8">
					<dim>48</dim>
					<dim>48</dim>
					<dim>3</dim>
					<dim>3</dim>
				</port>
			</input>
			<output>
				<port id="1" precision="FP32">
					<dim>48</dim>
					<dim>48</dim>
					<dim>3</dim>
					<dim>3</dim>
				</port>
			</output>
		</layer>
		<layer id="200" name="Constant_873590" type="Const" version="opset1">
			<data element_type="f32" shape="48, 1, 1, 1" offset="448920" size="192" />
			<output>
				<port id="0" precision="FP32">
					<dim>48</dim>
					<dim>1</dim>
					<dim>1</dim>
					<dim>1</dim>
				</port>
			</output>
		</layer>
		<layer id="201" name="__module.model.2.m.1.m.1.cv1.conv/aten::_convolution/Convolution/fq_weights_1" type="Multiply" version="opset1">
			<data auto_broadcast="numpy" />
			<input>
				<port id="0" precision="FP32">
					<dim>48</dim>
					<dim>48</dim>
					<dim>3</dim>
					<dim>3</dim>
				</port>
				<port id="1" precision="FP32">
					<dim>48</dim>
					<dim>1</dim>
					<dim>1</dim>
					<dim>1</dim>
				</port>
			</input>
			<output>
				<port id="2" precision="FP32">
					<dim>48</dim>
					<dim>48</dim>
					<dim>3</dim>
					<dim>3</dim>
				</port>
			</output>
		</layer>
		<layer id="202" name="__module.model.2.m.1.m.1.cv1.conv/aten::_convolution/Convolution" type="Convolution" version="opset1">
			<data strides="1, 1" dilations="1, 1" pads_begin="1, 1" pads_end="1, 1" auto_pad="explicit" />
			<input>
				<port id="0" precision="FP32">
					<dim>1</dim>
					<dim>48</dim>
					<dim>160</dim>
					<dim>160</dim>
				</port>
				<port id="1" precision="FP32">
					<dim>48</dim>
					<dim>48</dim>
					<dim>3</dim>
					<dim>3</dim>
				</port>
			</input>
			<output>
				<port id="2" precision="FP32">
					<dim>1</dim>
					<dim>48</dim>
					<dim>160</dim>
					<dim>160</dim>
				</port>
			</output>
		</layer>
		<layer id="203" name="__module.model.2.m.1.m.1.cv1.conv/aten::_convolution/Reshape" type="Const" version="opset1">
			<data element_type="f32" shape="1, 48, 1, 1" offset="449112" size="192" />
			<output>
				<port id="0" precision="FP32">
					<dim>1</dim>
					<dim>48</dim>
					<dim>1</dim>
					<dim>1</dim>
				</port>
			</output>
		</layer>
		<layer id="204" name="__module.model.2.m.1.m.1.cv1.conv/aten::_convolution/Add" type="Add" version="opset1">
			<data auto_broadcast="numpy" />
			<input>
				<port id="0" precision="FP32">
					<dim>1</dim>
					<dim>48</dim>
					<dim>160</dim>
					<dim>160</dim>
				</port>
				<port id="1" precision="FP32">
					<dim>1</dim>
					<dim>48</dim>
					<dim>1</dim>
					<dim>1</dim>
				</port>
			</input>
			<output>
				<port id="2" precision="FP32" names="256_1">
					<dim>1</dim>
					<dim>48</dim>
					<dim>160</dim>
					<dim>160</dim>
				</port>
			</output>
		</layer>
		<layer id="205" name="__module.model.22.m.0.1.ffn.0.act/aten::silu_/Swish_13" type="Swish" version="opset4">
			<input>
				<port id="0" precision="FP32">
					<dim>1</dim>
					<dim>48</dim>
					<dim>160</dim>
					<dim>160</dim>
				</port>
			</input>
			<output>
				<port id="1" precision="FP32" names="256,input.51">
					<dim>1</dim>
					<dim>48</dim>
					<dim>160</dim>
					<dim>160</dim>
				</port>
			</output>
		</layer>
		<layer id="206" name="__module.model.22.m.0.1.ffn.0.act/aten::silu_/Swish_13/fq_output_0/input_low" type="Const" version="opset1">
			<data element_type="f32" shape="" offset="449304" size="4" />
			<output>
				<port id="0" precision="FP32" />
			</output>
		</layer>
		<layer id="207" name="__module.model.22.m.0.1.ffn.0.act/aten::silu_/Swish_13/fq_output_0/input_high" type="Const" version="opset1">
			<data element_type="f32" shape="" offset="449308" size="4" />
			<output>
				<port id="0" precision="FP32" />
			</output>
		</layer>
		<layer id="208" name="__module.model.22.m.0.1.ffn.0.act/aten::silu_/Swish_13/fq_output_0/output_low" type="Const" version="opset1">
			<data element_type="f32" shape="" offset="449304" size="4" />
			<output>
				<port id="0" precision="FP32" />
			</output>
		</layer>
		<layer id="209" name="__module.model.22.m.0.1.ffn.0.act/aten::silu_/Swish_13/fq_output_0/output_high" type="Const" version="opset1">
			<data element_type="f32" shape="" offset="449308" size="4" />
			<output>
				<port id="0" precision="FP32" />
			</output>
		</layer>
		<layer id="210" name="__module.model.22.m.0.1.ffn.0.act/aten::silu_/Swish_13/fq_output_0" type="FakeQuantize" version="opset1">
			<data levels="256" auto_broadcast="numpy" />
			<input>
				<port id="0" precision="FP32">
					<dim>1</dim>
					<dim>48</dim>
					<dim>160</dim>
					<dim>160</dim>
				</port>
				<port id="1" precision="FP32" />
				<port id="2" precision="FP32" />
				<port id="3" precision="FP32" />
				<port id="4" precision="FP32" />
			</input>
			<output>
				<port id="5" precision="FP32">
					<dim>1</dim>
					<dim>48</dim>
					<dim>160</dim>
					<dim>160</dim>
				</port>
			</output>
		</layer>
		<layer id="211" name="Constant_873592" type="Const" version="opset1">
			<data element_type="i8" shape="48, 48, 3, 3" offset="449312" size="20736" />
			<output>
				<port id="0" precision="I8">
					<dim>48</dim>
					<dim>48</dim>
					<dim>3</dim>
					<dim>3</dim>
				</port>
			</output>
		</layer>
		<layer id="212" name="Convert_873593" type="Convert" version="opset1">
			<data destination_type="f32" />
			<input>
				<port id="0" precision="I8">
					<dim>48</dim>
					<dim>48</dim>
					<dim>3</dim>
					<dim>3</dim>
				</port>
			</input>
			<output>
				<port id="1" precision="FP32">
					<dim>48</dim>
					<dim>48</dim>
					<dim>3</dim>
					<dim>3</dim>
				</port>
			</output>
		</layer>
		<layer id="213" name="Constant_873594" type="Const" version="opset1">
			<data element_type="f32" shape="48, 1, 1, 1" offset="470048" size="192" />
			<output>
				<port id="0" precision="FP32">
					<dim>48</dim>
					<dim>1</dim>
					<dim>1</dim>
					<dim>1</dim>
				</port>
			</output>
		</layer>
		<layer id="214" name="__module.model.2.m.1.m.1.cv2.conv/aten::_convolution/Convolution/fq_weights_1" type="Multiply" version="opset1">
			<data auto_broadcast="numpy" />
			<input>
				<port id="0" precision="FP32">
					<dim>48</dim>
					<dim>48</dim>
					<dim>3</dim>
					<dim>3</dim>
				</port>
				<port id="1" precision="FP32">
					<dim>48</dim>
					<dim>1</dim>
					<dim>1</dim>
					<dim>1</dim>
				</port>
			</input>
			<output>
				<port id="2" precision="FP32">
					<dim>48</dim>
					<dim>48</dim>
					<dim>3</dim>
					<dim>3</dim>
				</port>
			</output>
		</layer>
		<layer id="215" name="__module.model.2.m.1.m.1.cv2.conv/aten::_convolution/Convolution" type="Convolution" version="opset1">
			<data strides="1, 1" dilations="1, 1" pads_begin="1, 1" pads_end="1, 1" auto_pad="explicit" />
			<input>
				<port id="0" precision="FP32">
					<dim>1</dim>
					<dim>48</dim>
					<dim>160</dim>
					<dim>160</dim>
				</port>
				<port id="1" precision="FP32">
					<dim>48</dim>
					<dim>48</dim>
					<dim>3</dim>
					<dim>3</dim>
				</port>
			</input>
			<output>
				<port id="2" precision="FP32">
					<dim>1</dim>
					<dim>48</dim>
					<dim>160</dim>
					<dim>160</dim>
				</port>
			</output>
		</layer>
		<layer id="216" name="__module.model.2.m.1.m.1.cv2.conv/aten::_convolution/Reshape" type="Const" version="opset1">
			<data element_type="f32" shape="1, 48, 1, 1" offset="470240" size="192" />
			<output>
				<port id="0" precision="FP32">
					<dim>1</dim>
					<dim>48</dim>
					<dim>1</dim>
					<dim>1</dim>
				</port>
			</output>
		</layer>
		<layer id="217" name="__module.model.2.m.1.m.1.cv2.conv/aten::_convolution/Add" type="Add" version="opset1">
			<data auto_broadcast="numpy" />
			<input>
				<port id="0" precision="FP32">
					<dim>1</dim>
					<dim>48</dim>
					<dim>160</dim>
					<dim>160</dim>
				</port>
				<port id="1" precision="FP32">
					<dim>1</dim>
					<dim>48</dim>
					<dim>1</dim>
					<dim>1</dim>
				</port>
			</input>
			<output>
				<port id="2" precision="FP32" names="265_1">
					<dim>1</dim>
					<dim>48</dim>
					<dim>160</dim>
					<dim>160</dim>
				</port>
			</output>
		</layer>
		<layer id="218" name="__module.model.22.m.0.1.ffn.0.act/aten::silu_/Swish_14" type="Swish" version="opset4">
			<input>
				<port id="0" precision="FP32">
					<dim>1</dim>
					<dim>48</dim>
					<dim>160</dim>
					<dim>160</dim>
				</port>
			</input>
			<output>
				<port id="1" precision="FP32" names="265,input.55">
					<dim>1</dim>
					<dim>48</dim>
					<dim>160</dim>
					<dim>160</dim>
				</port>
			</output>
		</layer>
		<layer id="219" name="__module.model.22.m.0.1.ffn.0.act/aten::silu_/Swish_14/fq_output_0/input_low" type="Const" version="opset1">
			<data element_type="f32" shape="" offset="238000" size="4" />
			<output>
				<port id="0" precision="FP32" />
			</output>
		</layer>
		<layer id="220" name="__module.model.22.m.0.1.ffn.0.act/aten::silu_/Swish_14/fq_output_0/input_high" type="Const" version="opset1">
			<data element_type="f32" shape="" offset="365940" size="4" />
			<output>
				<port id="0" precision="FP32" />
			</output>
		</layer>
		<layer id="221" name="__module.model.22.m.0.1.ffn.0.act/aten::silu_/Swish_14/fq_output_0/output_low" type="Const" version="opset1">
			<data element_type="f32" shape="" offset="238000" size="4" />
			<output>
				<port id="0" precision="FP32" />
			</output>
		</layer>
		<layer id="222" name="__module.model.22.m.0.1.ffn.0.act/aten::silu_/Swish_14/fq_output_0/output_high" type="Const" version="opset1">
			<data element_type="f32" shape="" offset="365940" size="4" />
			<output>
				<port id="0" precision="FP32" />
			</output>
		</layer>
		<layer id="223" name="__module.model.22.m.0.1.ffn.0.act/aten::silu_/Swish_14/fq_output_0" type="FakeQuantize" version="opset1">
			<data levels="256" auto_broadcast="numpy" />
			<input>
				<port id="0" precision="FP32">
					<dim>1</dim>
					<dim>48</dim>
					<dim>160</dim>
					<dim>160</dim>
				</port>
				<port id="1" precision="FP32" />
				<port id="2" precision="FP32" />
				<port id="3" precision="FP32" />
				<port id="4" precision="FP32" />
			</input>
			<output>
				<port id="5" precision="FP32">
					<dim>1</dim>
					<dim>48</dim>
					<dim>160</dim>
					<dim>160</dim>
				</port>
			</output>
		</layer>
		<layer id="224" name="__module.model.2.m.1.m.1/aten::add/Add" type="Add" version="opset1">
			<data auto_broadcast="numpy" />
			<input>
				<port id="0" precision="FP32">
					<dim>1</dim>
					<dim>48</dim>
					<dim>160</dim>
					<dim>160</dim>
				</port>
				<port id="1" precision="FP32">
					<dim>1</dim>
					<dim>48</dim>
					<dim>160</dim>
					<dim>160</dim>
				</port>
			</input>
			<output>
				<port id="2" precision="FP32" names="267">
					<dim>1</dim>
					<dim>48</dim>
					<dim>160</dim>
					<dim>160</dim>
				</port>
			</output>
		</layer>
		<layer id="225" name="__module.model.2.m.1.m.1/aten::add/Add/fq_output_0/input_low" type="Const" version="opset1">
			<data element_type="f32" shape="" offset="470432" size="4" />
			<output>
				<port id="0" precision="FP32" />
			</output>
		</layer>
		<layer id="226" name="__module.model.2.m.1.m.1/aten::add/Add/fq_output_0/input_high" type="Const" version="opset1">
			<data element_type="f32" shape="" offset="470436" size="4" />
			<output>
				<port id="0" precision="FP32" />
			</output>
		</layer>
		<layer id="227" name="__module.model.2.m.1.m.1/aten::add/Add/fq_output_0/output_low" type="Const" version="opset1">
			<data element_type="f32" shape="" offset="470432" size="4" />
			<output>
				<port id="0" precision="FP32" />
			</output>
		</layer>
		<layer id="228" name="__module.model.2.m.1.m.1/aten::add/Add/fq_output_0/output_high" type="Const" version="opset1">
			<data element_type="f32" shape="" offset="470436" size="4" />
			<output>
				<port id="0" precision="FP32" />
			</output>
		</layer>
		<layer id="229" name="__module.model.2.m.1.m.1/aten::add/Add/fq_output_0" type="FakeQuantize" version="opset1">
			<data levels="256" auto_broadcast="numpy" />
			<input>
				<port id="0" precision="FP32">
					<dim>1</dim>
					<dim>48</dim>
					<dim>160</dim>
					<dim>160</dim>
				</port>
				<port id="1" precision="FP32" />
				<port id="2" precision="FP32" />
				<port id="3" precision="FP32" />
				<port id="4" precision="FP32" />
			</input>
			<output>
				<port id="5" precision="FP32">
					<dim>1</dim>
					<dim>48</dim>
					<dim>160</dim>
					<dim>160</dim>
				</port>
			</output>
		</layer>
		<layer id="230" name="Constant_873596" type="Const" version="opset1">
			<data element_type="i8" shape="48, 96, 1, 1" offset="470440" size="4608" />
			<output>
				<port id="0" precision="I8">
					<dim>48</dim>
					<dim>96</dim>
					<dim>1</dim>
					<dim>1</dim>
				</port>
			</output>
		</layer>
		<layer id="231" name="Convert_873597" type="Convert" version="opset1">
			<data destination_type="f32" />
			<input>
				<port id="0" precision="I8">
					<dim>48</dim>
					<dim>96</dim>
					<dim>1</dim>
					<dim>1</dim>
				</port>
			</input>
			<output>
				<port id="1" precision="FP32">
					<dim>48</dim>
					<dim>96</dim>
					<dim>1</dim>
					<dim>1</dim>
				</port>
			</output>
		</layer>
		<layer id="232" name="Constant_873598" type="Const" version="opset1">
			<data element_type="f32" shape="48, 1, 1, 1" offset="475048" size="192" />
			<output>
				<port id="0" precision="FP32">
					<dim>48</dim>
					<dim>1</dim>
					<dim>1</dim>
					<dim>1</dim>
				</port>
			</output>
		</layer>
		<layer id="233" name="__module.model.2.m.1.cv2.conv/aten::_convolution/Convolution/fq_weights_1" type="Multiply" version="opset1">
			<data auto_broadcast="numpy" />
			<input>
				<port id="0" precision="FP32">
					<dim>48</dim>
					<dim>96</dim>
					<dim>1</dim>
					<dim>1</dim>
				</port>
				<port id="1" precision="FP32">
					<dim>48</dim>
					<dim>1</dim>
					<dim>1</dim>
					<dim>1</dim>
				</port>
			</input>
			<output>
				<port id="2" precision="FP32">
					<dim>48</dim>
					<dim>96</dim>
					<dim>1</dim>
					<dim>1</dim>
				</port>
			</output>
		</layer>
		<layer id="234" name="__module.model.2.m.1.cv2.conv/aten::_convolution/Convolution" type="Convolution" version="opset1">
			<data strides="1, 1" dilations="1, 1" pads_begin="0, 0" pads_end="0, 0" auto_pad="explicit" />
			<input>
				<port id="0" precision="FP32">
					<dim>1</dim>
					<dim>96</dim>
					<dim>160</dim>
					<dim>160</dim>
				</port>
				<port id="1" precision="FP32">
					<dim>48</dim>
					<dim>96</dim>
					<dim>1</dim>
					<dim>1</dim>
				</port>
			</input>
			<output>
				<port id="2" precision="FP32">
					<dim>1</dim>
					<dim>48</dim>
					<dim>160</dim>
					<dim>160</dim>
				</port>
			</output>
		</layer>
		<layer id="235" name="__module.model.2.m.1.cv2.conv/aten::_convolution/Reshape" type="Const" version="opset1">
			<data element_type="f32" shape="1, 48, 1, 1" offset="475240" size="192" />
			<output>
				<port id="0" precision="FP32">
					<dim>1</dim>
					<dim>48</dim>
					<dim>1</dim>
					<dim>1</dim>
				</port>
			</output>
		</layer>
		<layer id="236" name="__module.model.2.m.1.cv2.conv/aten::_convolution/Add" type="Add" version="opset1">
			<data auto_broadcast="numpy" />
			<input>
				<port id="0" precision="FP32">
					<dim>1</dim>
					<dim>48</dim>
					<dim>160</dim>
					<dim>160</dim>
				</port>
				<port id="1" precision="FP32">
					<dim>1</dim>
					<dim>48</dim>
					<dim>1</dim>
					<dim>1</dim>
				</port>
			</input>
			<output>
				<port id="2" precision="FP32" names="275_1">
					<dim>1</dim>
					<dim>48</dim>
					<dim>160</dim>
					<dim>160</dim>
				</port>
			</output>
		</layer>
		<layer id="237" name="__module.model.22.m.0.1.ffn.0.act/aten::silu_/Swish_15" type="Swish" version="opset4">
			<input>
				<port id="0" precision="FP32">
					<dim>1</dim>
					<dim>48</dim>
					<dim>160</dim>
					<dim>160</dim>
				</port>
			</input>
			<output>
				<port id="1" precision="FP32" names="275,input.57">
					<dim>1</dim>
					<dim>48</dim>
					<dim>160</dim>
					<dim>160</dim>
				</port>
			</output>
		</layer>
		<layer id="238" name="__module.model.22.m.0.1.ffn.0.act/aten::silu_/Swish_15/fq_output_0/input_low" type="Const" version="opset1">
			<data element_type="f32" shape="" offset="470432" size="4" />
			<output>
				<port id="0" precision="FP32" />
			</output>
		</layer>
		<layer id="239" name="__module.model.22.m.0.1.ffn.0.act/aten::silu_/Swish_15/fq_output_0/input_high" type="Const" version="opset1">
			<data element_type="f32" shape="" offset="470436" size="4" />
			<output>
				<port id="0" precision="FP32" />
			</output>
		</layer>
		<layer id="240" name="__module.model.22.m.0.1.ffn.0.act/aten::silu_/Swish_15/fq_output_0/output_low" type="Const" version="opset1">
			<data element_type="f32" shape="" offset="470432" size="4" />
			<output>
				<port id="0" precision="FP32" />
			</output>
		</layer>
		<layer id="241" name="__module.model.22.m.0.1.ffn.0.act/aten::silu_/Swish_15/fq_output_0/output_high" type="Const" version="opset1">
			<data element_type="f32" shape="" offset="470436" size="4" />
			<output>
				<port id="0" precision="FP32" />
			</output>
		</layer>
		<layer id="242" name="__module.model.22.m.0.1.ffn.0.act/aten::silu_/Swish_15/fq_output_0" type="FakeQuantize" version="opset1">
			<data levels="256" auto_broadcast="numpy" />
			<input>
				<port id="0" precision="FP32">
					<dim>1</dim>
					<dim>48</dim>
					<dim>160</dim>
					<dim>160</dim>
				</port>
				<port id="1" precision="FP32" />
				<port id="2" precision="FP32" />
				<port id="3" precision="FP32" />
				<port id="4" precision="FP32" />
			</input>
			<output>
				<port id="5" precision="FP32">
					<dim>1</dim>
					<dim>48</dim>
					<dim>160</dim>
					<dim>160</dim>
				</port>
			</output>
		</layer>
		<layer id="243" name="__module.model.2.m.1/aten::cat/Concat" type="Concat" version="opset1">
			<data axis="1" />
			<input>
				<port id="0" precision="FP32">
					<dim>1</dim>
					<dim>48</dim>
					<dim>160</dim>
					<dim>160</dim>
				</port>
				<port id="1" precision="FP32">
					<dim>1</dim>
					<dim>48</dim>
					<dim>160</dim>
					<dim>160</dim>
				</port>
			</input>
			<output>
				<port id="2" precision="FP32" names="278,input.59">
					<dim>1</dim>
					<dim>96</dim>
					<dim>160</dim>
					<dim>160</dim>
				</port>
			</output>
		</layer>
		<layer id="244" name="Constant_873600" type="Const" version="opset1">
			<data element_type="i8" shape="96, 96, 1, 1" offset="475432" size="9216" />
			<output>
				<port id="0" precision="I8">
					<dim>96</dim>
					<dim>96</dim>
					<dim>1</dim>
					<dim>1</dim>
				</port>
			</output>
		</layer>
		<layer id="245" name="Convert_873601" type="Convert" version="opset1">
			<data destination_type="f32" />
			<input>
				<port id="0" precision="I8">
					<dim>96</dim>
					<dim>96</dim>
					<dim>1</dim>
					<dim>1</dim>
				</port>
			</input>
			<output>
				<port id="1" precision="FP32">
					<dim>96</dim>
					<dim>96</dim>
					<dim>1</dim>
					<dim>1</dim>
				</port>
			</output>
		</layer>
		<layer id="246" name="Constant_873602" type="Const" version="opset1">
			<data element_type="f32" shape="96, 1, 1, 1" offset="484648" size="384" />
			<output>
				<port id="0" precision="FP32">
					<dim>96</dim>
					<dim>1</dim>
					<dim>1</dim>
					<dim>1</dim>
				</port>
			</output>
		</layer>
		<layer id="247" name="__module.model.2.m.1.cv3.conv/aten::_convolution/Convolution/fq_weights_1" type="Multiply" version="opset1">
			<data auto_broadcast="numpy" />
			<input>
				<port id="0" precision="FP32">
					<dim>96</dim>
					<dim>96</dim>
					<dim>1</dim>
					<dim>1</dim>
				</port>
				<port id="1" precision="FP32">
					<dim>96</dim>
					<dim>1</dim>
					<dim>1</dim>
					<dim>1</dim>
				</port>
			</input>
			<output>
				<port id="2" precision="FP32">
					<dim>96</dim>
					<dim>96</dim>
					<dim>1</dim>
					<dim>1</dim>
				</port>
			</output>
		</layer>
		<layer id="248" name="__module.model.2.m.1.cv3.conv/aten::_convolution/Convolution" type="Convolution" version="opset1">
			<data strides="1, 1" dilations="1, 1" pads_begin="0, 0" pads_end="0, 0" auto_pad="explicit" />
			<input>
				<port id="0" precision="FP32">
					<dim>1</dim>
					<dim>96</dim>
					<dim>160</dim>
					<dim>160</dim>
				</port>
				<port id="1" precision="FP32">
					<dim>96</dim>
					<dim>96</dim>
					<dim>1</dim>
					<dim>1</dim>
				</port>
			</input>
			<output>
				<port id="2" precision="FP32">
					<dim>1</dim>
					<dim>96</dim>
					<dim>160</dim>
					<dim>160</dim>
				</port>
			</output>
		</layer>
		<layer id="249" name="__module.model.2.m.1.cv3.conv/aten::_convolution/Reshape" type="Const" version="opset1">
			<data element_type="f32" shape="1, 96, 1, 1" offset="485032" size="384" />
			<output>
				<port id="0" precision="FP32">
					<dim>1</dim>
					<dim>96</dim>
					<dim>1</dim>
					<dim>1</dim>
				</port>
			</output>
		</layer>
		<layer id="250" name="__module.model.2.m.1.cv3.conv/aten::_convolution/Add" type="Add" version="opset1">
			<data auto_broadcast="numpy" />
			<input>
				<port id="0" precision="FP32">
					<dim>1</dim>
					<dim>96</dim>
					<dim>160</dim>
					<dim>160</dim>
				</port>
				<port id="1" precision="FP32">
					<dim>1</dim>
					<dim>96</dim>
					<dim>1</dim>
					<dim>1</dim>
				</port>
			</input>
			<output>
				<port id="2" precision="FP32" names="286_1">
					<dim>1</dim>
					<dim>96</dim>
					<dim>160</dim>
					<dim>160</dim>
				</port>
			</output>
		</layer>
		<layer id="251" name="__module.model.22.m.0.1.ffn.0.act/aten::silu_/Swish_16" type="Swish" version="opset4">
			<input>
				<port id="0" precision="FP32">
					<dim>1</dim>
					<dim>96</dim>
					<dim>160</dim>
					<dim>160</dim>
				</port>
			</input>
			<output>
				<port id="1" precision="FP32" names="286,input.61">
					<dim>1</dim>
					<dim>96</dim>
					<dim>160</dim>
					<dim>160</dim>
				</port>
			</output>
		</layer>
		<layer id="252" name="__module.model.22.m.0.1.ffn.0.act/aten::silu_/Swish_16/fq_output_0/input_low" type="Const" version="opset1">
			<data element_type="f32" shape="" offset="276408" size="4" />
			<output>
				<port id="0" precision="FP32" />
			</output>
		</layer>
		<layer id="253" name="__module.model.22.m.0.1.ffn.0.act/aten::silu_/Swish_16/fq_output_0/input_high" type="Const" version="opset1">
			<data element_type="f32" shape="" offset="276412" size="4" />
			<output>
				<port id="0" precision="FP32" />
			</output>
		</layer>
		<layer id="254" name="__module.model.22.m.0.1.ffn.0.act/aten::silu_/Swish_16/fq_output_0/output_low" type="Const" version="opset1">
			<data element_type="f32" shape="" offset="276408" size="4" />
			<output>
				<port id="0" precision="FP32" />
			</output>
		</layer>
		<layer id="255" name="__module.model.22.m.0.1.ffn.0.act/aten::silu_/Swish_16/fq_output_0/output_high" type="Const" version="opset1">
			<data element_type="f32" shape="" offset="276412" size="4" />
			<output>
				<port id="0" precision="FP32" />
			</output>
		</layer>
		<layer id="256" name="__module.model.22.m.0.1.ffn.0.act/aten::silu_/Swish_16/fq_output_0" type="FakeQuantize" version="opset1">
			<data levels="256" auto_broadcast="numpy" />
			<input>
				<port id="0" precision="FP32">
					<dim>1</dim>
					<dim>96</dim>
					<dim>160</dim>
					<dim>160</dim>
				</port>
				<port id="1" precision="FP32" />
				<port id="2" precision="FP32" />
				<port id="3" precision="FP32" />
				<port id="4" precision="FP32" />
			</input>
			<output>
				<port id="5" precision="FP32">
					<dim>1</dim>
					<dim>96</dim>
					<dim>160</dim>
					<dim>160</dim>
				</port>
			</output>
		</layer>
		<layer id="257" name="__module.model.2/aten::cat/Concat" type="Concat" version="opset1">
			<data axis="1" />
			<input>
				<port id="0" precision="FP32">
					<dim>1</dim>
					<dim>96</dim>
					<dim>160</dim>
					<dim>160</dim>
				</port>
				<port id="1" precision="FP32">
					<dim>1</dim>
					<dim>96</dim>
					<dim>160</dim>
					<dim>160</dim>
				</port>
				<port id="2" precision="FP32">
					<dim>1</dim>
					<dim>96</dim>
					<dim>160</dim>
					<dim>160</dim>
				</port>
				<port id="3" precision="FP32">
					<dim>1</dim>
					<dim>96</dim>
					<dim>160</dim>
					<dim>160</dim>
				</port>
			</input>
			<output>
				<port id="4" precision="FP32" names="289,input.63">
					<dim>1</dim>
					<dim>384</dim>
					<dim>160</dim>
					<dim>160</dim>
				</port>
			</output>
		</layer>
		<layer id="258" name="Constant_873604" type="Const" version="opset1">
			<data element_type="i8" shape="384, 384, 1, 1" offset="485416" size="147456" />
			<output>
				<port id="0" precision="I8">
					<dim>384</dim>
					<dim>384</dim>
					<dim>1</dim>
					<dim>1</dim>
				</port>
			</output>
		</layer>
		<layer id="259" name="Convert_873605" type="Convert" version="opset1">
			<data destination_type="f32" />
			<input>
				<port id="0" precision="I8">
					<dim>384</dim>
					<dim>384</dim>
					<dim>1</dim>
					<dim>1</dim>
				</port>
			</input>
			<output>
				<port id="1" precision="FP32">
					<dim>384</dim>
					<dim>384</dim>
					<dim>1</dim>
					<dim>1</dim>
				</port>
			</output>
		</layer>
		<layer id="260" name="Constant_873606" type="Const" version="opset1">
			<data element_type="f32" shape="384, 1, 1, 1" offset="632872" size="1536" />
			<output>
				<port id="0" precision="FP32">
					<dim>384</dim>
					<dim>1</dim>
					<dim>1</dim>
					<dim>1</dim>
				</port>
			</output>
		</layer>
		<layer id="261" name="__module.model.2.cv2.conv/aten::_convolution/Convolution/fq_weights_1" type="Multiply" version="opset1">
			<data auto_broadcast="numpy" />
			<input>
				<port id="0" precision="FP32">
					<dim>384</dim>
					<dim>384</dim>
					<dim>1</dim>
					<dim>1</dim>
				</port>
				<port id="1" precision="FP32">
					<dim>384</dim>
					<dim>1</dim>
					<dim>1</dim>
					<dim>1</dim>
				</port>
			</input>
			<output>
				<port id="2" precision="FP32">
					<dim>384</dim>
					<dim>384</dim>
					<dim>1</dim>
					<dim>1</dim>
				</port>
			</output>
		</layer>
		<layer id="262" name="__module.model.2.cv2.conv/aten::_convolution/Convolution" type="Convolution" version="opset1">
			<data strides="1, 1" dilations="1, 1" pads_begin="0, 0" pads_end="0, 0" auto_pad="explicit" />
			<input>
				<port id="0" precision="FP32">
					<dim>1</dim>
					<dim>384</dim>
					<dim>160</dim>
					<dim>160</dim>
				</port>
				<port id="1" precision="FP32">
					<dim>384</dim>
					<dim>384</dim>
					<dim>1</dim>
					<dim>1</dim>
				</port>
			</input>
			<output>
				<port id="2" precision="FP32">
					<dim>1</dim>
					<dim>384</dim>
					<dim>160</dim>
					<dim>160</dim>
				</port>
			</output>
		</layer>
		<layer id="263" name="__module.model.2.cv2.conv/aten::_convolution/Reshape" type="Const" version="opset1">
			<data element_type="f32" shape="1, 384, 1, 1" offset="634408" size="1536" />
			<output>
				<port id="0" precision="FP32">
					<dim>1</dim>
					<dim>384</dim>
					<dim>1</dim>
					<dim>1</dim>
				</port>
			</output>
		</layer>
		<layer id="264" name="__module.model.2.cv2.conv/aten::_convolution/Add" type="Add" version="opset1">
			<data auto_broadcast="numpy" />
			<input>
				<port id="0" precision="FP32">
					<dim>1</dim>
					<dim>384</dim>
					<dim>160</dim>
					<dim>160</dim>
				</port>
				<port id="1" precision="FP32">
					<dim>1</dim>
					<dim>384</dim>
					<dim>1</dim>
					<dim>1</dim>
				</port>
			</input>
			<output>
				<port id="2" precision="FP32" names="297_1">
					<dim>1</dim>
					<dim>384</dim>
					<dim>160</dim>
					<dim>160</dim>
				</port>
			</output>
		</layer>
		<layer id="265" name="__module.model.22.m.0.1.ffn.0.act/aten::silu_/Swish_17" type="Swish" version="opset4">
			<input>
				<port id="0" precision="FP32">
					<dim>1</dim>
					<dim>384</dim>
					<dim>160</dim>
					<dim>160</dim>
				</port>
			</input>
			<output>
				<port id="1" precision="FP32" names="297,input.65">
					<dim>1</dim>
					<dim>384</dim>
					<dim>160</dim>
					<dim>160</dim>
				</port>
			</output>
		</layer>
		<layer id="266" name="__module.model.22.m.0.1.ffn.0.act/aten::silu_/Swish_17/fq_output_0/input_low" type="Const" version="opset1">
			<data element_type="f32" shape="" offset="238000" size="4" />
			<output>
				<port id="0" precision="FP32" />
			</output>
		</layer>
		<layer id="267" name="__module.model.22.m.0.1.ffn.0.act/aten::silu_/Swish_17/fq_output_0/input_high" type="Const" version="opset1">
			<data element_type="f32" shape="" offset="635944" size="4" />
			<output>
				<port id="0" precision="FP32" />
			</output>
		</layer>
		<layer id="268" name="__module.model.22.m.0.1.ffn.0.act/aten::silu_/Swish_17/fq_output_0/output_low" type="Const" version="opset1">
			<data element_type="f32" shape="" offset="238000" size="4" />
			<output>
				<port id="0" precision="FP32" />
			</output>
		</layer>
		<layer id="269" name="__module.model.22.m.0.1.ffn.0.act/aten::silu_/Swish_17/fq_output_0/output_high" type="Const" version="opset1">
			<data element_type="f32" shape="" offset="635944" size="4" />
			<output>
				<port id="0" precision="FP32" />
			</output>
		</layer>
		<layer id="270" name="__module.model.22.m.0.1.ffn.0.act/aten::silu_/Swish_17/fq_output_0" type="FakeQuantize" version="opset1">
			<data levels="256" auto_broadcast="numpy" />
			<input>
				<port id="0" precision="FP32">
					<dim>1</dim>
					<dim>384</dim>
					<dim>160</dim>
					<dim>160</dim>
				</port>
				<port id="1" precision="FP32" />
				<port id="2" precision="FP32" />
				<port id="3" precision="FP32" />
				<port id="4" precision="FP32" />
			</input>
			<output>
				<port id="5" precision="FP32">
					<dim>1</dim>
					<dim>384</dim>
					<dim>160</dim>
					<dim>160</dim>
				</port>
			</output>
		</layer>
		<layer id="271" name="Constant_873608" type="Const" version="opset1">
			<data element_type="i8" shape="384, 384, 3, 3" offset="635948" size="1327104" />
			<output>
				<port id="0" precision="I8">
					<dim>384</dim>
					<dim>384</dim>
					<dim>3</dim>
					<dim>3</dim>
				</port>
			</output>
		</layer>
		<layer id="272" name="Convert_873609" type="Convert" version="opset1">
			<data destination_type="f32" />
			<input>
				<port id="0" precision="I8">
					<dim>384</dim>
					<dim>384</dim>
					<dim>3</dim>
					<dim>3</dim>
				</port>
			</input>
			<output>
				<port id="1" precision="FP32">
					<dim>384</dim>
					<dim>384</dim>
					<dim>3</dim>
					<dim>3</dim>
				</port>
			</output>
		</layer>
		<layer id="273" name="Constant_873610" type="Const" version="opset1">
			<data element_type="f32" shape="384, 1, 1, 1" offset="1963052" size="1536" />
			<output>
				<port id="0" precision="FP32">
					<dim>384</dim>
					<dim>1</dim>
					<dim>1</dim>
					<dim>1</dim>
				</port>
			</output>
		</layer>
		<layer id="274" name="__module.model.3.conv/aten::_convolution/Convolution/fq_weights_1" type="Multiply" version="opset1">
			<data auto_broadcast="numpy" />
			<input>
				<port id="0" precision="FP32">
					<dim>384</dim>
					<dim>384</dim>
					<dim>3</dim>
					<dim>3</dim>
				</port>
				<port id="1" precision="FP32">
					<dim>384</dim>
					<dim>1</dim>
					<dim>1</dim>
					<dim>1</dim>
				</port>
			</input>
			<output>
				<port id="2" precision="FP32">
					<dim>384</dim>
					<dim>384</dim>
					<dim>3</dim>
					<dim>3</dim>
				</port>
			</output>
		</layer>
		<layer id="275" name="__module.model.3.conv/aten::_convolution/Convolution" type="Convolution" version="opset1">
			<data strides="2, 2" dilations="1, 1" pads_begin="1, 1" pads_end="1, 1" auto_pad="explicit" />
			<input>
				<port id="0" precision="FP32">
					<dim>1</dim>
					<dim>384</dim>
					<dim>160</dim>
					<dim>160</dim>
				</port>
				<port id="1" precision="FP32">
					<dim>384</dim>
					<dim>384</dim>
					<dim>3</dim>
					<dim>3</dim>
				</port>
			</input>
			<output>
				<port id="2" precision="FP32">
					<dim>1</dim>
					<dim>384</dim>
					<dim>80</dim>
					<dim>80</dim>
				</port>
			</output>
		</layer>
		<layer id="276" name="__module.model.3.conv/aten::_convolution/Reshape" type="Const" version="opset1">
			<data element_type="f32" shape="1, 384, 1, 1" offset="1964588" size="1536" />
			<output>
				<port id="0" precision="FP32">
					<dim>1</dim>
					<dim>384</dim>
					<dim>1</dim>
					<dim>1</dim>
				</port>
			</output>
		</layer>
		<layer id="277" name="__module.model.3.conv/aten::_convolution/Add" type="Add" version="opset1">
			<data auto_broadcast="numpy" />
			<input>
				<port id="0" precision="FP32">
					<dim>1</dim>
					<dim>384</dim>
					<dim>80</dim>
					<dim>80</dim>
				</port>
				<port id="1" precision="FP32">
					<dim>1</dim>
					<dim>384</dim>
					<dim>1</dim>
					<dim>1</dim>
				</port>
			</input>
			<output>
				<port id="2" precision="FP32" names="311_1">
					<dim>1</dim>
					<dim>384</dim>
					<dim>80</dim>
					<dim>80</dim>
				</port>
			</output>
		</layer>
		<layer id="278" name="__module.model.22.m.0.1.ffn.0.act/aten::silu_/Swish_18" type="Swish" version="opset4">
			<input>
				<port id="0" precision="FP32">
					<dim>1</dim>
					<dim>384</dim>
					<dim>80</dim>
					<dim>80</dim>
				</port>
			</input>
			<output>
				<port id="1" precision="FP32" names="311,input.69">
					<dim>1</dim>
					<dim>384</dim>
					<dim>80</dim>
					<dim>80</dim>
				</port>
			</output>
		</layer>
		<layer id="279" name="__module.model.22.m.0.1.ffn.0.act/aten::silu_/Swish_18/fq_output_0/input_low" type="Const" version="opset1">
			<data element_type="f32" shape="" offset="1966124" size="4" />
			<output>
				<port id="0" precision="FP32" />
			</output>
		</layer>
		<layer id="280" name="__module.model.22.m.0.1.ffn.0.act/aten::silu_/Swish_18/fq_output_0/input_high" type="Const" version="opset1">
			<data element_type="f32" shape="" offset="1966128" size="4" />
			<output>
				<port id="0" precision="FP32" />
			</output>
		</layer>
		<layer id="281" name="__module.model.22.m.0.1.ffn.0.act/aten::silu_/Swish_18/fq_output_0/output_low" type="Const" version="opset1">
			<data element_type="f32" shape="" offset="1966124" size="4" />
			<output>
				<port id="0" precision="FP32" />
			</output>
		</layer>
		<layer id="282" name="__module.model.22.m.0.1.ffn.0.act/aten::silu_/Swish_18/fq_output_0/output_high" type="Const" version="opset1">
			<data element_type="f32" shape="" offset="1966128" size="4" />
			<output>
				<port id="0" precision="FP32" />
			</output>
		</layer>
		<layer id="283" name="__module.model.22.m.0.1.ffn.0.act/aten::silu_/Swish_18/fq_output_0" type="FakeQuantize" version="opset1">
			<data levels="256" auto_broadcast="numpy" />
			<input>
				<port id="0" precision="FP32">
					<dim>1</dim>
					<dim>384</dim>
					<dim>80</dim>
					<dim>80</dim>
				</port>
				<port id="1" precision="FP32" />
				<port id="2" precision="FP32" />
				<port id="3" precision="FP32" />
				<port id="4" precision="FP32" />
			</input>
			<output>
				<port id="5" precision="FP32">
					<dim>1</dim>
					<dim>384</dim>
					<dim>80</dim>
					<dim>80</dim>
				</port>
			</output>
		</layer>
		<layer id="284" name="Constant_873612" type="Const" version="opset1">
			<data element_type="i8" shape="384, 384, 1, 1" offset="1966132" size="147456" />
			<output>
				<port id="0" precision="I8">
					<dim>384</dim>
					<dim>384</dim>
					<dim>1</dim>
					<dim>1</dim>
				</port>
			</output>
		</layer>
		<layer id="285" name="Convert_873613" type="Convert" version="opset1">
			<data destination_type="f32" />
			<input>
				<port id="0" precision="I8">
					<dim>384</dim>
					<dim>384</dim>
					<dim>1</dim>
					<dim>1</dim>
				</port>
			</input>
			<output>
				<port id="1" precision="FP32">
					<dim>384</dim>
					<dim>384</dim>
					<dim>1</dim>
					<dim>1</dim>
				</port>
			</output>
		</layer>
		<layer id="286" name="Constant_873614" type="Const" version="opset1">
			<data element_type="f32" shape="384, 1, 1, 1" offset="2113588" size="1536" />
			<output>
				<port id="0" precision="FP32">
					<dim>384</dim>
					<dim>1</dim>
					<dim>1</dim>
					<dim>1</dim>
				</port>
			</output>
		</layer>
		<layer id="287" name="__module.model.4.cv1.conv/aten::_convolution/Convolution/fq_weights_1" type="Multiply" version="opset1">
			<data auto_broadcast="numpy" />
			<input>
				<port id="0" precision="FP32">
					<dim>384</dim>
					<dim>384</dim>
					<dim>1</dim>
					<dim>1</dim>
				</port>
				<port id="1" precision="FP32">
					<dim>384</dim>
					<dim>1</dim>
					<dim>1</dim>
					<dim>1</dim>
				</port>
			</input>
			<output>
				<port id="2" precision="FP32">
					<dim>384</dim>
					<dim>384</dim>
					<dim>1</dim>
					<dim>1</dim>
				</port>
			</output>
		</layer>
		<layer id="288" name="__module.model.4.cv1.conv/aten::_convolution/Convolution" type="Convolution" version="opset1">
			<data strides="1, 1" dilations="1, 1" pads_begin="0, 0" pads_end="0, 0" auto_pad="explicit" />
			<input>
				<port id="0" precision="FP32">
					<dim>1</dim>
					<dim>384</dim>
					<dim>80</dim>
					<dim>80</dim>
				</port>
				<port id="1" precision="FP32">
					<dim>384</dim>
					<dim>384</dim>
					<dim>1</dim>
					<dim>1</dim>
				</port>
			</input>
			<output>
				<port id="2" precision="FP32">
					<dim>1</dim>
					<dim>384</dim>
					<dim>80</dim>
					<dim>80</dim>
				</port>
			</output>
		</layer>
		<layer id="289" name="__module.model.4.cv1.conv/aten::_convolution/Reshape" type="Const" version="opset1">
			<data element_type="f32" shape="1, 384, 1, 1" offset="2115124" size="1536" />
			<output>
				<port id="0" precision="FP32">
					<dim>1</dim>
					<dim>384</dim>
					<dim>1</dim>
					<dim>1</dim>
				</port>
			</output>
		</layer>
		<layer id="290" name="__module.model.4.cv1.conv/aten::_convolution/Add" type="Add" version="opset1">
			<data auto_broadcast="numpy" />
			<input>
				<port id="0" precision="FP32">
					<dim>1</dim>
					<dim>384</dim>
					<dim>80</dim>
					<dim>80</dim>
				</port>
				<port id="1" precision="FP32">
					<dim>1</dim>
					<dim>384</dim>
					<dim>1</dim>
					<dim>1</dim>
				</port>
			</input>
			<output>
				<port id="2" precision="FP32" names="331_1">
					<dim>1</dim>
					<dim>384</dim>
					<dim>80</dim>
					<dim>80</dim>
				</port>
			</output>
		</layer>
		<layer id="291" name="__module.model.22.m.0.1.ffn.0.act/aten::silu_/Swish_19" type="Swish" version="opset4">
			<input>
				<port id="0" precision="FP32">
					<dim>1</dim>
					<dim>384</dim>
					<dim>80</dim>
					<dim>80</dim>
				</port>
			</input>
			<output>
				<port id="1" precision="FP32" names="331,input.73">
					<dim>1</dim>
					<dim>384</dim>
					<dim>80</dim>
					<dim>80</dim>
				</port>
			</output>
		</layer>
		<layer id="292" name="__module.model.22.m.0.1.ffn.0.act/aten::silu_/Swish_19/fq_output_0/input_low" type="Const" version="opset1">
			<data element_type="f32" shape="" offset="238000" size="4" />
			<output>
				<port id="0" precision="FP32" />
			</output>
		</layer>
		<layer id="293" name="__module.model.22.m.0.1.ffn.0.act/aten::silu_/Swish_19/fq_output_0/input_high" type="Const" version="opset1">
			<data element_type="f32" shape="" offset="2116660" size="4" />
			<output>
				<port id="0" precision="FP32" />
			</output>
		</layer>
		<layer id="294" name="__module.model.22.m.0.1.ffn.0.act/aten::silu_/Swish_19/fq_output_0/output_low" type="Const" version="opset1">
			<data element_type="f32" shape="" offset="238000" size="4" />
			<output>
				<port id="0" precision="FP32" />
			</output>
		</layer>
		<layer id="295" name="__module.model.22.m.0.1.ffn.0.act/aten::silu_/Swish_19/fq_output_0/output_high" type="Const" version="opset1">
			<data element_type="f32" shape="" offset="2116660" size="4" />
			<output>
				<port id="0" precision="FP32" />
			</output>
		</layer>
		<layer id="296" name="__module.model.22.m.0.1.ffn.0.act/aten::silu_/Swish_19/fq_output_0" type="FakeQuantize" version="opset1">
			<data levels="256" auto_broadcast="numpy" />
			<input>
				<port id="0" precision="FP32">
					<dim>1</dim>
					<dim>384</dim>
					<dim>80</dim>
					<dim>80</dim>
				</port>
				<port id="1" precision="FP32" />
				<port id="2" precision="FP32" />
				<port id="3" precision="FP32" />
				<port id="4" precision="FP32" />
			</input>
			<output>
				<port id="5" precision="FP32">
					<dim>1</dim>
					<dim>384</dim>
					<dim>80</dim>
					<dim>80</dim>
				</port>
			</output>
		</layer>
		<layer id="297" name="317" type="Const" version="opset1">
			<data element_type="i64" shape="" offset="276416" size="8" />
			<output>
				<port id="0" precision="I64" names="317" />
			</output>
		</layer>
		<layer id="298" name="Constant_1063" type="Const" version="opset1">
			<data element_type="i64" shape="2" offset="2116664" size="16" />
			<output>
				<port id="0" precision="I64" names="333">
					<dim>2</dim>
				</port>
			</output>
		</layer>
		<layer id="299" name="__module.model.4/aten::split_with_sizes/VariadicSplit" type="VariadicSplit" version="opset1">
			<input>
				<port id="0" precision="FP32">
					<dim>1</dim>
					<dim>384</dim>
					<dim>80</dim>
					<dim>80</dim>
				</port>
				<port id="1" precision="I64" />
				<port id="2" precision="I64">
					<dim>2</dim>
				</port>
			</input>
			<output>
				<port id="3" precision="FP32" names="335">
					<dim>1</dim>
					<dim>192</dim>
					<dim>80</dim>
					<dim>80</dim>
				</port>
				<port id="4" precision="FP32" names="336,input.75">
					<dim>1</dim>
					<dim>192</dim>
					<dim>80</dim>
					<dim>80</dim>
				</port>
			</output>
		</layer>
		<layer id="300" name="Constant_873616" type="Const" version="opset1">
			<data element_type="i8" shape="96, 192, 1, 1" offset="2116680" size="18432" />
			<output>
				<port id="0" precision="I8">
					<dim>96</dim>
					<dim>192</dim>
					<dim>1</dim>
					<dim>1</dim>
				</port>
			</output>
		</layer>
		<layer id="301" name="Convert_873617" type="Convert" version="opset1">
			<data destination_type="f32" />
			<input>
				<port id="0" precision="I8">
					<dim>96</dim>
					<dim>192</dim>
					<dim>1</dim>
					<dim>1</dim>
				</port>
			</input>
			<output>
				<port id="1" precision="FP32">
					<dim>96</dim>
					<dim>192</dim>
					<dim>1</dim>
					<dim>1</dim>
				</port>
			</output>
		</layer>
		<layer id="302" name="Constant_873618" type="Const" version="opset1">
			<data element_type="f32" shape="96, 1, 1, 1" offset="2135112" size="384" />
			<output>
				<port id="0" precision="FP32">
					<dim>96</dim>
					<dim>1</dim>
					<dim>1</dim>
					<dim>1</dim>
				</port>
			</output>
		</layer>
		<layer id="303" name="__module.model.4.m.0.cv1.conv/aten::_convolution/Convolution/fq_weights_1" type="Multiply" version="opset1">
			<data auto_broadcast="numpy" />
			<input>
				<port id="0" precision="FP32">
					<dim>96</dim>
					<dim>192</dim>
					<dim>1</dim>
					<dim>1</dim>
				</port>
				<port id="1" precision="FP32">
					<dim>96</dim>
					<dim>1</dim>
					<dim>1</dim>
					<dim>1</dim>
				</port>
			</input>
			<output>
				<port id="2" precision="FP32">
					<dim>96</dim>
					<dim>192</dim>
					<dim>1</dim>
					<dim>1</dim>
				</port>
			</output>
		</layer>
		<layer id="304" name="__module.model.4.m.0.cv1.conv/aten::_convolution/Convolution" type="Convolution" version="opset1">
			<data strides="1, 1" dilations="1, 1" pads_begin="0, 0" pads_end="0, 0" auto_pad="explicit" />
			<input>
				<port id="0" precision="FP32">
					<dim>1</dim>
					<dim>192</dim>
					<dim>80</dim>
					<dim>80</dim>
				</port>
				<port id="1" precision="FP32">
					<dim>96</dim>
					<dim>192</dim>
					<dim>1</dim>
					<dim>1</dim>
				</port>
			</input>
			<output>
				<port id="2" precision="FP32">
					<dim>1</dim>
					<dim>96</dim>
					<dim>80</dim>
					<dim>80</dim>
				</port>
			</output>
		</layer>
		<layer id="305" name="__module.model.4.m.0.cv1.conv/aten::_convolution/Reshape" type="Const" version="opset1">
			<data element_type="f32" shape="1, 96, 1, 1" offset="2135496" size="384" />
			<output>
				<port id="0" precision="FP32">
					<dim>1</dim>
					<dim>96</dim>
					<dim>1</dim>
					<dim>1</dim>
				</port>
			</output>
		</layer>
		<layer id="306" name="__module.model.4.m.0.cv1.conv/aten::_convolution/Add" type="Add" version="opset1">
			<data auto_broadcast="numpy" />
			<input>
				<port id="0" precision="FP32">
					<dim>1</dim>
					<dim>96</dim>
					<dim>80</dim>
					<dim>80</dim>
				</port>
				<port id="1" precision="FP32">
					<dim>1</dim>
					<dim>96</dim>
					<dim>1</dim>
					<dim>1</dim>
				</port>
			</input>
			<output>
				<port id="2" precision="FP32" names="348_1">
					<dim>1</dim>
					<dim>96</dim>
					<dim>80</dim>
					<dim>80</dim>
				</port>
			</output>
		</layer>
		<layer id="307" name="__module.model.22.m.0.1.ffn.0.act/aten::silu_/Swish_20" type="Swish" version="opset4">
			<input>
				<port id="0" precision="FP32">
					<dim>1</dim>
					<dim>96</dim>
					<dim>80</dim>
					<dim>80</dim>
				</port>
			</input>
			<output>
				<port id="1" precision="FP32" names="348,input.77">
					<dim>1</dim>
					<dim>96</dim>
					<dim>80</dim>
					<dim>80</dim>
				</port>
			</output>
		</layer>
		<layer id="308" name="__module.model.22.m.0.1.ffn.0.act/aten::silu_/Swish_20/fq_output_0/input_low" type="Const" version="opset1">
			<data element_type="f32" shape="" offset="238000" size="4" />
			<output>
				<port id="0" precision="FP32" />
			</output>
		</layer>
		<layer id="309" name="__module.model.22.m.0.1.ffn.0.act/aten::silu_/Swish_20/fq_output_0/input_high" type="Const" version="opset1">
			<data element_type="f32" shape="" offset="2135880" size="4" />
			<output>
				<port id="0" precision="FP32" />
			</output>
		</layer>
		<layer id="310" name="__module.model.22.m.0.1.ffn.0.act/aten::silu_/Swish_20/fq_output_0/output_low" type="Const" version="opset1">
			<data element_type="f32" shape="" offset="238000" size="4" />
			<output>
				<port id="0" precision="FP32" />
			</output>
		</layer>
		<layer id="311" name="__module.model.22.m.0.1.ffn.0.act/aten::silu_/Swish_20/fq_output_0/output_high" type="Const" version="opset1">
			<data element_type="f32" shape="" offset="2135880" size="4" />
			<output>
				<port id="0" precision="FP32" />
			</output>
		</layer>
		<layer id="312" name="__module.model.22.m.0.1.ffn.0.act/aten::silu_/Swish_20/fq_output_0" type="FakeQuantize" version="opset1">
			<data levels="256" auto_broadcast="numpy" />
			<input>
				<port id="0" precision="FP32">
					<dim>1</dim>
					<dim>96</dim>
					<dim>80</dim>
					<dim>80</dim>
				</port>
				<port id="1" precision="FP32" />
				<port id="2" precision="FP32" />
				<port id="3" precision="FP32" />
				<port id="4" precision="FP32" />
			</input>
			<output>
				<port id="5" precision="FP32">
					<dim>1</dim>
					<dim>96</dim>
					<dim>80</dim>
					<dim>80</dim>
				</port>
			</output>
		</layer>
		<layer id="313" name="Constant_873620" type="Const" version="opset1">
			<data element_type="i8" shape="96, 96, 3, 3" offset="2135884" size="82944" />
			<output>
				<port id="0" precision="I8">
					<dim>96</dim>
					<dim>96</dim>
					<dim>3</dim>
					<dim>3</dim>
				</port>
			</output>
		</layer>
		<layer id="314" name="Convert_873621" type="Convert" version="opset1">
			<data destination_type="f32" />
			<input>
				<port id="0" precision="I8">
					<dim>96</dim>
					<dim>96</dim>
					<dim>3</dim>
					<dim>3</dim>
				</port>
			</input>
			<output>
				<port id="1" precision="FP32">
					<dim>96</dim>
					<dim>96</dim>
					<dim>3</dim>
					<dim>3</dim>
				</port>
			</output>
		</layer>
		<layer id="315" name="Constant_873622" type="Const" version="opset1">
			<data element_type="f32" shape="96, 1, 1, 1" offset="2218828" size="384" />
			<output>
				<port id="0" precision="FP32">
					<dim>96</dim>
					<dim>1</dim>
					<dim>1</dim>
					<dim>1</dim>
				</port>
			</output>
		</layer>
		<layer id="316" name="__module.model.4.m.0.m.0.cv1.conv/aten::_convolution/Convolution/fq_weights_1" type="Multiply" version="opset1">
			<data auto_broadcast="numpy" />
			<input>
				<port id="0" precision="FP32">
					<dim>96</dim>
					<dim>96</dim>
					<dim>3</dim>
					<dim>3</dim>
				</port>
				<port id="1" precision="FP32">
					<dim>96</dim>
					<dim>1</dim>
					<dim>1</dim>
					<dim>1</dim>
				</port>
			</input>
			<output>
				<port id="2" precision="FP32">
					<dim>96</dim>
					<dim>96</dim>
					<dim>3</dim>
					<dim>3</dim>
				</port>
			</output>
		</layer>
		<layer id="317" name="__module.model.4.m.0.m.0.cv1.conv/aten::_convolution/Convolution" type="Convolution" version="opset1">
			<data strides="1, 1" dilations="1, 1" pads_begin="1, 1" pads_end="1, 1" auto_pad="explicit" />
			<input>
				<port id="0" precision="FP32">
					<dim>1</dim>
					<dim>96</dim>
					<dim>80</dim>
					<dim>80</dim>
				</port>
				<port id="1" precision="FP32">
					<dim>96</dim>
					<dim>96</dim>
					<dim>3</dim>
					<dim>3</dim>
				</port>
			</input>
			<output>
				<port id="2" precision="FP32">
					<dim>1</dim>
					<dim>96</dim>
					<dim>80</dim>
					<dim>80</dim>
				</port>
			</output>
		</layer>
		<layer id="318" name="__module.model.4.m.0.m.0.cv1.conv/aten::_convolution/Reshape" type="Const" version="opset1">
			<data element_type="f32" shape="1, 96, 1, 1" offset="2219212" size="384" />
			<output>
				<port id="0" precision="FP32">
					<dim>1</dim>
					<dim>96</dim>
					<dim>1</dim>
					<dim>1</dim>
				</port>
			</output>
		</layer>
		<layer id="319" name="__module.model.4.m.0.m.0.cv1.conv/aten::_convolution/Add" type="Add" version="opset1">
			<data auto_broadcast="numpy" />
			<input>
				<port id="0" precision="FP32">
					<dim>1</dim>
					<dim>96</dim>
					<dim>80</dim>
					<dim>80</dim>
				</port>
				<port id="1" precision="FP32">
					<dim>1</dim>
					<dim>96</dim>
					<dim>1</dim>
					<dim>1</dim>
				</port>
			</input>
			<output>
				<port id="2" precision="FP32" names="361_1">
					<dim>1</dim>
					<dim>96</dim>
					<dim>80</dim>
					<dim>80</dim>
				</port>
			</output>
		</layer>
		<layer id="320" name="__module.model.22.m.0.1.ffn.0.act/aten::silu_/Swish_21" type="Swish" version="opset4">
			<input>
				<port id="0" precision="FP32">
					<dim>1</dim>
					<dim>96</dim>
					<dim>80</dim>
					<dim>80</dim>
				</port>
			</input>
			<output>
				<port id="1" precision="FP32" names="361,input.81">
					<dim>1</dim>
					<dim>96</dim>
					<dim>80</dim>
					<dim>80</dim>
				</port>
			</output>
		</layer>
		<layer id="321" name="__module.model.22.m.0.1.ffn.0.act/aten::silu_/Swish_21/fq_output_0/input_low" type="Const" version="opset1">
			<data element_type="f32" shape="" offset="238000" size="4" />
			<output>
				<port id="0" precision="FP32" />
			</output>
		</layer>
		<layer id="322" name="__module.model.22.m.0.1.ffn.0.act/aten::silu_/Swish_21/fq_output_0/input_high" type="Const" version="opset1">
			<data element_type="f32" shape="" offset="2219596" size="4" />
			<output>
				<port id="0" precision="FP32" />
			</output>
		</layer>
		<layer id="323" name="__module.model.22.m.0.1.ffn.0.act/aten::silu_/Swish_21/fq_output_0/output_low" type="Const" version="opset1">
			<data element_type="f32" shape="" offset="238000" size="4" />
			<output>
				<port id="0" precision="FP32" />
			</output>
		</layer>
		<layer id="324" name="__module.model.22.m.0.1.ffn.0.act/aten::silu_/Swish_21/fq_output_0/output_high" type="Const" version="opset1">
			<data element_type="f32" shape="" offset="2219596" size="4" />
			<output>
				<port id="0" precision="FP32" />
			</output>
		</layer>
		<layer id="325" name="__module.model.22.m.0.1.ffn.0.act/aten::silu_/Swish_21/fq_output_0" type="FakeQuantize" version="opset1">
			<data levels="256" auto_broadcast="numpy" />
			<input>
				<port id="0" precision="FP32">
					<dim>1</dim>
					<dim>96</dim>
					<dim>80</dim>
					<dim>80</dim>
				</port>
				<port id="1" precision="FP32" />
				<port id="2" precision="FP32" />
				<port id="3" precision="FP32" />
				<port id="4" precision="FP32" />
			</input>
			<output>
				<port id="5" precision="FP32">
					<dim>1</dim>
					<dim>96</dim>
					<dim>80</dim>
					<dim>80</dim>
				</port>
			</output>
		</layer>
		<layer id="326" name="Constant_873624" type="Const" version="opset1">
			<data element_type="i8" shape="96, 96, 3, 3" offset="2219600" size="82944" />
			<output>
				<port id="0" precision="I8">
					<dim>96</dim>
					<dim>96</dim>
					<dim>3</dim>
					<dim>3</dim>
				</port>
			</output>
		</layer>
		<layer id="327" name="Convert_873625" type="Convert" version="opset1">
			<data destination_type="f32" />
			<input>
				<port id="0" precision="I8">
					<dim>96</dim>
					<dim>96</dim>
					<dim>3</dim>
					<dim>3</dim>
				</port>
			</input>
			<output>
				<port id="1" precision="FP32">
					<dim>96</dim>
					<dim>96</dim>
					<dim>3</dim>
					<dim>3</dim>
				</port>
			</output>
		</layer>
		<layer id="328" name="Constant_873626" type="Const" version="opset1">
			<data element_type="f32" shape="96, 1, 1, 1" offset="2302544" size="384" />
			<output>
				<port id="0" precision="FP32">
					<dim>96</dim>
					<dim>1</dim>
					<dim>1</dim>
					<dim>1</dim>
				</port>
			</output>
		</layer>
		<layer id="329" name="__module.model.4.m.0.m.0.cv2.conv/aten::_convolution/Convolution/fq_weights_1" type="Multiply" version="opset1">
			<data auto_broadcast="numpy" />
			<input>
				<port id="0" precision="FP32">
					<dim>96</dim>
					<dim>96</dim>
					<dim>3</dim>
					<dim>3</dim>
				</port>
				<port id="1" precision="FP32">
					<dim>96</dim>
					<dim>1</dim>
					<dim>1</dim>
					<dim>1</dim>
				</port>
			</input>
			<output>
				<port id="2" precision="FP32">
					<dim>96</dim>
					<dim>96</dim>
					<dim>3</dim>
					<dim>3</dim>
				</port>
			</output>
		</layer>
		<layer id="330" name="__module.model.4.m.0.m.0.cv2.conv/aten::_convolution/Convolution" type="Convolution" version="opset1">
			<data strides="1, 1" dilations="1, 1" pads_begin="1, 1" pads_end="1, 1" auto_pad="explicit" />
			<input>
				<port id="0" precision="FP32">
					<dim>1</dim>
					<dim>96</dim>
					<dim>80</dim>
					<dim>80</dim>
				</port>
				<port id="1" precision="FP32">
					<dim>96</dim>
					<dim>96</dim>
					<dim>3</dim>
					<dim>3</dim>
				</port>
			</input>
			<output>
				<port id="2" precision="FP32">
					<dim>1</dim>
					<dim>96</dim>
					<dim>80</dim>
					<dim>80</dim>
				</port>
			</output>
		</layer>
		<layer id="331" name="__module.model.4.m.0.m.0.cv2.conv/aten::_convolution/Reshape" type="Const" version="opset1">
			<data element_type="f32" shape="1, 96, 1, 1" offset="2302928" size="384" />
			<output>
				<port id="0" precision="FP32">
					<dim>1</dim>
					<dim>96</dim>
					<dim>1</dim>
					<dim>1</dim>
				</port>
			</output>
		</layer>
		<layer id="332" name="__module.model.4.m.0.m.0.cv2.conv/aten::_convolution/Add" type="Add" version="opset1">
			<data auto_broadcast="numpy" />
			<input>
				<port id="0" precision="FP32">
					<dim>1</dim>
					<dim>96</dim>
					<dim>80</dim>
					<dim>80</dim>
				</port>
				<port id="1" precision="FP32">
					<dim>1</dim>
					<dim>96</dim>
					<dim>1</dim>
					<dim>1</dim>
				</port>
			</input>
			<output>
				<port id="2" precision="FP32" names="370_1">
					<dim>1</dim>
					<dim>96</dim>
					<dim>80</dim>
					<dim>80</dim>
				</port>
			</output>
		</layer>
		<layer id="333" name="__module.model.22.m.0.1.ffn.0.act/aten::silu_/Swish_22" type="Swish" version="opset4">
			<input>
				<port id="0" precision="FP32">
					<dim>1</dim>
					<dim>96</dim>
					<dim>80</dim>
					<dim>80</dim>
				</port>
			</input>
			<output>
				<port id="1" precision="FP32" names="370,input.85">
					<dim>1</dim>
					<dim>96</dim>
					<dim>80</dim>
					<dim>80</dim>
				</port>
			</output>
		</layer>
		<layer id="334" name="__module.model.22.m.0.1.ffn.0.act/aten::silu_/Swish_22/fq_output_0/input_low" type="Const" version="opset1">
			<data element_type="f32" shape="" offset="2303312" size="4" />
			<output>
				<port id="0" precision="FP32" />
			</output>
		</layer>
		<layer id="335" name="__module.model.22.m.0.1.ffn.0.act/aten::silu_/Swish_22/fq_output_0/input_high" type="Const" version="opset1">
			<data element_type="f32" shape="" offset="2303316" size="4" />
			<output>
				<port id="0" precision="FP32" />
			</output>
		</layer>
		<layer id="336" name="__module.model.22.m.0.1.ffn.0.act/aten::silu_/Swish_22/fq_output_0/output_low" type="Const" version="opset1">
			<data element_type="f32" shape="" offset="2303312" size="4" />
			<output>
				<port id="0" precision="FP32" />
			</output>
		</layer>
		<layer id="337" name="__module.model.22.m.0.1.ffn.0.act/aten::silu_/Swish_22/fq_output_0/output_high" type="Const" version="opset1">
			<data element_type="f32" shape="" offset="2303316" size="4" />
			<output>
				<port id="0" precision="FP32" />
			</output>
		</layer>
		<layer id="338" name="__module.model.22.m.0.1.ffn.0.act/aten::silu_/Swish_22/fq_output_0" type="FakeQuantize" version="opset1">
			<data levels="256" auto_broadcast="numpy" />
			<input>
				<port id="0" precision="FP32">
					<dim>1</dim>
					<dim>96</dim>
					<dim>80</dim>
					<dim>80</dim>
				</port>
				<port id="1" precision="FP32" />
				<port id="2" precision="FP32" />
				<port id="3" precision="FP32" />
				<port id="4" precision="FP32" />
			</input>
			<output>
				<port id="5" precision="FP32">
					<dim>1</dim>
					<dim>96</dim>
					<dim>80</dim>
					<dim>80</dim>
				</port>
			</output>
		</layer>
		<layer id="339" name="__module.model.4.m.0.m.0/aten::add/Add" type="Add" version="opset1">
			<data auto_broadcast="numpy" />
			<input>
				<port id="0" precision="FP32">
					<dim>1</dim>
					<dim>96</dim>
					<dim>80</dim>
					<dim>80</dim>
				</port>
				<port id="1" precision="FP32">
					<dim>1</dim>
					<dim>96</dim>
					<dim>80</dim>
					<dim>80</dim>
				</port>
			</input>
			<output>
				<port id="2" precision="FP32" names="372,input.87">
					<dim>1</dim>
					<dim>96</dim>
					<dim>80</dim>
					<dim>80</dim>
				</port>
			</output>
		</layer>
		<layer id="340" name="__module.model.4.m.0.m.0/aten::add/Add/fq_output_0/input_low" type="Const" version="opset1">
			<data element_type="f32" shape="" offset="2303320" size="4" />
			<output>
				<port id="0" precision="FP32" />
			</output>
		</layer>
		<layer id="341" name="__module.model.4.m.0.m.0/aten::add/Add/fq_output_0/input_high" type="Const" version="opset1">
			<data element_type="f32" shape="" offset="2303324" size="4" />
			<output>
				<port id="0" precision="FP32" />
			</output>
		</layer>
		<layer id="342" name="__module.model.4.m.0.m.0/aten::add/Add/fq_output_0/output_low" type="Const" version="opset1">
			<data element_type="f32" shape="" offset="2303320" size="4" />
			<output>
				<port id="0" precision="FP32" />
			</output>
		</layer>
		<layer id="343" name="__module.model.4.m.0.m.0/aten::add/Add/fq_output_0/output_high" type="Const" version="opset1">
			<data element_type="f32" shape="" offset="2303324" size="4" />
			<output>
				<port id="0" precision="FP32" />
			</output>
		</layer>
		<layer id="344" name="__module.model.4.m.0.m.0/aten::add/Add/fq_output_0" type="FakeQuantize" version="opset1">
			<data levels="256" auto_broadcast="numpy" />
			<input>
				<port id="0" precision="FP32">
					<dim>1</dim>
					<dim>96</dim>
					<dim>80</dim>
					<dim>80</dim>
				</port>
				<port id="1" precision="FP32" />
				<port id="2" precision="FP32" />
				<port id="3" precision="FP32" />
				<port id="4" precision="FP32" />
			</input>
			<output>
				<port id="5" precision="FP32">
					<dim>1</dim>
					<dim>96</dim>
					<dim>80</dim>
					<dim>80</dim>
				</port>
			</output>
		</layer>
		<layer id="345" name="Constant_873628" type="Const" version="opset1">
			<data element_type="i8" shape="96, 96, 3, 3" offset="2303328" size="82944" />
			<output>
				<port id="0" precision="I8">
					<dim>96</dim>
					<dim>96</dim>
					<dim>3</dim>
					<dim>3</dim>
				</port>
			</output>
		</layer>
		<layer id="346" name="Convert_873629" type="Convert" version="opset1">
			<data destination_type="f32" />
			<input>
				<port id="0" precision="I8">
					<dim>96</dim>
					<dim>96</dim>
					<dim>3</dim>
					<dim>3</dim>
				</port>
			</input>
			<output>
				<port id="1" precision="FP32">
					<dim>96</dim>
					<dim>96</dim>
					<dim>3</dim>
					<dim>3</dim>
				</port>
			</output>
		</layer>
		<layer id="347" name="Constant_873630" type="Const" version="opset1">
			<data element_type="f32" shape="96, 1, 1, 1" offset="2386272" size="384" />
			<output>
				<port id="0" precision="FP32">
					<dim>96</dim>
					<dim>1</dim>
					<dim>1</dim>
					<dim>1</dim>
				</port>
			</output>
		</layer>
		<layer id="348" name="__module.model.4.m.0.m.1.cv1.conv/aten::_convolution/Convolution/fq_weights_1" type="Multiply" version="opset1">
			<data auto_broadcast="numpy" />
			<input>
				<port id="0" precision="FP32">
					<dim>96</dim>
					<dim>96</dim>
					<dim>3</dim>
					<dim>3</dim>
				</port>
				<port id="1" precision="FP32">
					<dim>96</dim>
					<dim>1</dim>
					<dim>1</dim>
					<dim>1</dim>
				</port>
			</input>
			<output>
				<port id="2" precision="FP32">
					<dim>96</dim>
					<dim>96</dim>
					<dim>3</dim>
					<dim>3</dim>
				</port>
			</output>
		</layer>
		<layer id="349" name="__module.model.4.m.0.m.1.cv1.conv/aten::_convolution/Convolution" type="Convolution" version="opset1">
			<data strides="1, 1" dilations="1, 1" pads_begin="1, 1" pads_end="1, 1" auto_pad="explicit" />
			<input>
				<port id="0" precision="FP32">
					<dim>1</dim>
					<dim>96</dim>
					<dim>80</dim>
					<dim>80</dim>
				</port>
				<port id="1" precision="FP32">
					<dim>96</dim>
					<dim>96</dim>
					<dim>3</dim>
					<dim>3</dim>
				</port>
			</input>
			<output>
				<port id="2" precision="FP32">
					<dim>1</dim>
					<dim>96</dim>
					<dim>80</dim>
					<dim>80</dim>
				</port>
			</output>
		</layer>
		<layer id="350" name="__module.model.4.m.0.m.1.cv1.conv/aten::_convolution/Reshape" type="Const" version="opset1">
			<data element_type="f32" shape="1, 96, 1, 1" offset="2386656" size="384" />
			<output>
				<port id="0" precision="FP32">
					<dim>1</dim>
					<dim>96</dim>
					<dim>1</dim>
					<dim>1</dim>
				</port>
			</output>
		</layer>
		<layer id="351" name="__module.model.4.m.0.m.1.cv1.conv/aten::_convolution/Add" type="Add" version="opset1">
			<data auto_broadcast="numpy" />
			<input>
				<port id="0" precision="FP32">
					<dim>1</dim>
					<dim>96</dim>
					<dim>80</dim>
					<dim>80</dim>
				</port>
				<port id="1" precision="FP32">
					<dim>1</dim>
					<dim>96</dim>
					<dim>1</dim>
					<dim>1</dim>
				</port>
			</input>
			<output>
				<port id="2" precision="FP32" names="382_1">
					<dim>1</dim>
					<dim>96</dim>
					<dim>80</dim>
					<dim>80</dim>
				</port>
			</output>
		</layer>
		<layer id="352" name="__module.model.22.m.0.1.ffn.0.act/aten::silu_/Swish_23" type="Swish" version="opset4">
			<input>
				<port id="0" precision="FP32">
					<dim>1</dim>
					<dim>96</dim>
					<dim>80</dim>
					<dim>80</dim>
				</port>
			</input>
			<output>
				<port id="1" precision="FP32" names="382,input.89">
					<dim>1</dim>
					<dim>96</dim>
					<dim>80</dim>
					<dim>80</dim>
				</port>
			</output>
		</layer>
		<layer id="353" name="__module.model.22.m.0.1.ffn.0.act/aten::silu_/Swish_23/fq_output_0/input_low" type="Const" version="opset1">
			<data element_type="f32" shape="" offset="2387040" size="4" />
			<output>
				<port id="0" precision="FP32" />
			</output>
		</layer>
		<layer id="354" name="__module.model.22.m.0.1.ffn.0.act/aten::silu_/Swish_23/fq_output_0/input_high" type="Const" version="opset1">
			<data element_type="f32" shape="" offset="2387044" size="4" />
			<output>
				<port id="0" precision="FP32" />
			</output>
		</layer>
		<layer id="355" name="__module.model.22.m.0.1.ffn.0.act/aten::silu_/Swish_23/fq_output_0/output_low" type="Const" version="opset1">
			<data element_type="f32" shape="" offset="2387040" size="4" />
			<output>
				<port id="0" precision="FP32" />
			</output>
		</layer>
		<layer id="356" name="__module.model.22.m.0.1.ffn.0.act/aten::silu_/Swish_23/fq_output_0/output_high" type="Const" version="opset1">
			<data element_type="f32" shape="" offset="2387044" size="4" />
			<output>
				<port id="0" precision="FP32" />
			</output>
		</layer>
		<layer id="357" name="__module.model.22.m.0.1.ffn.0.act/aten::silu_/Swish_23/fq_output_0" type="FakeQuantize" version="opset1">
			<data levels="256" auto_broadcast="numpy" />
			<input>
				<port id="0" precision="FP32">
					<dim>1</dim>
					<dim>96</dim>
					<dim>80</dim>
					<dim>80</dim>
				</port>
				<port id="1" precision="FP32" />
				<port id="2" precision="FP32" />
				<port id="3" precision="FP32" />
				<port id="4" precision="FP32" />
			</input>
			<output>
				<port id="5" precision="FP32">
					<dim>1</dim>
					<dim>96</dim>
					<dim>80</dim>
					<dim>80</dim>
				</port>
			</output>
		</layer>
		<layer id="358" name="Constant_873632" type="Const" version="opset1">
			<data element_type="i8" shape="96, 96, 3, 3" offset="2387048" size="82944" />
			<output>
				<port id="0" precision="I8">
					<dim>96</dim>
					<dim>96</dim>
					<dim>3</dim>
					<dim>3</dim>
				</port>
			</output>
		</layer>
		<layer id="359" name="Convert_873633" type="Convert" version="opset1">
			<data destination_type="f32" />
			<input>
				<port id="0" precision="I8">
					<dim>96</dim>
					<dim>96</dim>
					<dim>3</dim>
					<dim>3</dim>
				</port>
			</input>
			<output>
				<port id="1" precision="FP32">
					<dim>96</dim>
					<dim>96</dim>
					<dim>3</dim>
					<dim>3</dim>
				</port>
			</output>
		</layer>
		<layer id="360" name="Constant_873634" type="Const" version="opset1">
			<data element_type="f32" shape="96, 1, 1, 1" offset="2469992" size="384" />
			<output>
				<port id="0" precision="FP32">
					<dim>96</dim>
					<dim>1</dim>
					<dim>1</dim>
					<dim>1</dim>
				</port>
			</output>
		</layer>
		<layer id="361" name="__module.model.4.m.0.m.1.cv2.conv/aten::_convolution/Convolution/fq_weights_1" type="Multiply" version="opset1">
			<data auto_broadcast="numpy" />
			<input>
				<port id="0" precision="FP32">
					<dim>96</dim>
					<dim>96</dim>
					<dim>3</dim>
					<dim>3</dim>
				</port>
				<port id="1" precision="FP32">
					<dim>96</dim>
					<dim>1</dim>
					<dim>1</dim>
					<dim>1</dim>
				</port>
			</input>
			<output>
				<port id="2" precision="FP32">
					<dim>96</dim>
					<dim>96</dim>
					<dim>3</dim>
					<dim>3</dim>
				</port>
			</output>
		</layer>
		<layer id="362" name="__module.model.4.m.0.m.1.cv2.conv/aten::_convolution/Convolution" type="Convolution" version="opset1">
			<data strides="1, 1" dilations="1, 1" pads_begin="1, 1" pads_end="1, 1" auto_pad="explicit" />
			<input>
				<port id="0" precision="FP32">
					<dim>1</dim>
					<dim>96</dim>
					<dim>80</dim>
					<dim>80</dim>
				</port>
				<port id="1" precision="FP32">
					<dim>96</dim>
					<dim>96</dim>
					<dim>3</dim>
					<dim>3</dim>
				</port>
			</input>
			<output>
				<port id="2" precision="FP32">
					<dim>1</dim>
					<dim>96</dim>
					<dim>80</dim>
					<dim>80</dim>
				</port>
			</output>
		</layer>
		<layer id="363" name="__module.model.4.m.0.m.1.cv2.conv/aten::_convolution/Reshape" type="Const" version="opset1">
			<data element_type="f32" shape="1, 96, 1, 1" offset="2470376" size="384" />
			<output>
				<port id="0" precision="FP32">
					<dim>1</dim>
					<dim>96</dim>
					<dim>1</dim>
					<dim>1</dim>
				</port>
			</output>
		</layer>
		<layer id="364" name="__module.model.4.m.0.m.1.cv2.conv/aten::_convolution/Add" type="Add" version="opset1">
			<data auto_broadcast="numpy" />
			<input>
				<port id="0" precision="FP32">
					<dim>1</dim>
					<dim>96</dim>
					<dim>80</dim>
					<dim>80</dim>
				</port>
				<port id="1" precision="FP32">
					<dim>1</dim>
					<dim>96</dim>
					<dim>1</dim>
					<dim>1</dim>
				</port>
			</input>
			<output>
				<port id="2" precision="FP32" names="391_1">
					<dim>1</dim>
					<dim>96</dim>
					<dim>80</dim>
					<dim>80</dim>
				</port>
			</output>
		</layer>
		<layer id="365" name="__module.model.22.m.0.1.ffn.0.act/aten::silu_/Swish_24" type="Swish" version="opset4">
			<input>
				<port id="0" precision="FP32">
					<dim>1</dim>
					<dim>96</dim>
					<dim>80</dim>
					<dim>80</dim>
				</port>
			</input>
			<output>
				<port id="1" precision="FP32" names="391,input.93">
					<dim>1</dim>
					<dim>96</dim>
					<dim>80</dim>
					<dim>80</dim>
				</port>
			</output>
		</layer>
		<layer id="366" name="__module.model.22.m.0.1.ffn.0.act/aten::silu_/Swish_24/fq_output_0/input_low" type="Const" version="opset1">
			<data element_type="f32" shape="" offset="238000" size="4" />
			<output>
				<port id="0" precision="FP32" />
			</output>
		</layer>
		<layer id="367" name="__module.model.22.m.0.1.ffn.0.act/aten::silu_/Swish_24/fq_output_0/input_high" type="Const" version="opset1">
			<data element_type="f32" shape="" offset="2470760" size="4" />
			<output>
				<port id="0" precision="FP32" />
			</output>
		</layer>
…
		<edge from-layer="1933" from-port="2" to-layer="1934" to-port="1" />
		<edge from-layer="1934" from-port="2" to-layer="1936" to-port="0" />
		<edge from-layer="1935" from-port="0" to-layer="1936" to-port="1" />
		<edge from-layer="1936" from-port="2" to-layer="1937" to-port="0" />
		<edge from-layer="1937" from-port="1" to-layer="1942" to-port="0" />
		<edge from-layer="1938" from-port="0" to-layer="1942" to-port="1" />
		<edge from-layer="1939" from-port="0" to-layer="1942" to-port="2" />
		<edge from-layer="1940" from-port="0" to-layer="1942" to-port="3" />
		<edge from-layer="1941" from-port="0" to-layer="1942" to-port="4" />
		<edge from-layer="1942" from-port="5" to-layer="1943" to-port="1" />
		<edge from-layer="1943" from-port="2" to-layer="1948" to-port="0" />
		<edge from-layer="1944" from-port="0" to-layer="1945" to-port="0" />
		<edge from-layer="1945" from-port="1" to-layer="1947" to-port="0" />
		<edge from-layer="1946" from-port="0" to-layer="1947" to-port="1" />
		<edge from-layer="1947" from-port="2" to-layer="1948" to-port="1" />
		<edge from-layer="1948" from-port="2" to-layer="1950" to-port="0" />
		<edge from-layer="1949" from-port="0" to-layer="1950" to-port="1" />
		<edge from-layer="1950" from-port="2" to-layer="1951" to-port="0" />
		<edge from-layer="1951" from-port="1" to-layer="1956" to-port="0" />
		<edge from-layer="1952" from-port="0" to-layer="1956" to-port="1" />
		<edge from-layer="1953" from-port="0" to-layer="1956" to-port="2" />
		<edge from-layer="1954" from-port="0" to-layer="1956" to-port="3" />
		<edge from-layer="1955" from-port="0" to-layer="1956" to-port="4" />
		<edge from-layer="1956" from-port="5" to-layer="1961" to-port="0" />
		<edge from-layer="1956" from-port="5" to-layer="2061" to-port="2" />
		<edge from-layer="1956" from-port="5" to-layer="2038" to-port="0" />
		<edge from-layer="1957" from-port="0" to-layer="1958" to-port="0" />
		<edge from-layer="1958" from-port="1" to-layer="1960" to-port="0" />
		<edge from-layer="1959" from-port="0" to-layer="1960" to-port="1" />
		<edge from-layer="1960" from-port="2" to-layer="1961" to-port="1" />
		<edge from-layer="1961" from-port="2" to-layer="1963" to-port="0" />
		<edge from-layer="1962" from-port="0" to-layer="1963" to-port="1" />
		<edge from-layer="1963" from-port="2" to-layer="1964" to-port="0" />
		<edge from-layer="1964" from-port="1" to-layer="1969" to-port="0" />
		<edge from-layer="1965" from-port="0" to-layer="1969" to-port="1" />
		<edge from-layer="1966" from-port="0" to-layer="1969" to-port="2" />
		<edge from-layer="1967" from-port="0" to-layer="1969" to-port="3" />
		<edge from-layer="1968" from-port="0" to-layer="1969" to-port="4" />
		<edge from-layer="1969" from-port="5" to-layer="1974" to-port="0" />
		<edge from-layer="1969" from-port="5" to-layer="1996" to-port="0" />
		<edge from-layer="1970" from-port="0" to-layer="1971" to-port="0" />
		<edge from-layer="1971" from-port="1" to-layer="1973" to-port="0" />
		<edge from-layer="1972" from-port="0" to-layer="1973" to-port="1" />
		<edge from-layer="1973" from-port="2" to-layer="1974" to-port="1" />
		<edge from-layer="1974" from-port="2" to-layer="1976" to-port="0" />
		<edge from-layer="1975" from-port="0" to-layer="1976" to-port="1" />
		<edge from-layer="1976" from-port="2" to-layer="1977" to-port="0" />
		<edge from-layer="1977" from-port="1" to-layer="1982" to-port="0" />
		<edge from-layer="1978" from-port="0" to-layer="1982" to-port="1" />
		<edge from-layer="1979" from-port="0" to-layer="1982" to-port="2" />
		<edge from-layer="1980" from-port="0" to-layer="1982" to-port="3" />
		<edge from-layer="1981" from-port="0" to-layer="1982" to-port="4" />
		<edge from-layer="1982" from-port="5" to-layer="1987" to-port="0" />
		<edge from-layer="1983" from-port="0" to-layer="1984" to-port="0" />
		<edge from-layer="1984" from-port="1" to-layer="1986" to-port="0" />
		<edge from-layer="1985" from-port="0" to-layer="1986" to-port="1" />
		<edge from-layer="1986" from-port="2" to-layer="1987" to-port="1" />
		<edge from-layer="1987" from-port="2" to-layer="1989" to-port="0" />
		<edge from-layer="1988" from-port="0" to-layer="1989" to-port="1" />
		<edge from-layer="1989" from-port="2" to-layer="1990" to-port="0" />
		<edge from-layer="1990" from-port="1" to-layer="1995" to-port="0" />
		<edge from-layer="1991" from-port="0" to-layer="1995" to-port="1" />
		<edge from-layer="1992" from-port="0" to-layer="1995" to-port="2" />
		<edge from-layer="1993" from-port="0" to-layer="1995" to-port="3" />
		<edge from-layer="1994" from-port="0" to-layer="1995" to-port="4" />
		<edge from-layer="1995" from-port="5" to-layer="1996" to-port="1" />
		<edge from-layer="1996" from-port="2" to-layer="2001" to-port="0" />
		<edge from-layer="1997" from-port="0" to-layer="2001" to-port="1" />
		<edge from-layer="1998" from-port="0" to-layer="2001" to-port="2" />
		<edge from-layer="1999" from-port="0" to-layer="2001" to-port="3" />
		<edge from-layer="2000" from-port="0" to-layer="2001" to-port="4" />
		<edge from-layer="2001" from-port="5" to-layer="2028" to-port="0" />
		<edge from-layer="2001" from-port="5" to-layer="2006" to-port="0" />
		<edge from-layer="2002" from-port="0" to-layer="2003" to-port="0" />
		<edge from-layer="2003" from-port="1" to-layer="2005" to-port="0" />
		<edge from-layer="2004" from-port="0" to-layer="2005" to-port="1" />
		<edge from-layer="2005" from-port="2" to-layer="2006" to-port="1" />
		<edge from-layer="2006" from-port="2" to-layer="2008" to-port="0" />
		<edge from-layer="2007" from-port="0" to-layer="2008" to-port="1" />
		<edge from-layer="2008" from-port="2" to-layer="2009" to-port="0" />
		<edge from-layer="2009" from-port="1" to-layer="2014" to-port="0" />
		<edge from-layer="2010" from-port="0" to-layer="2014" to-port="1" />
		<edge from-layer="2011" from-port="0" to-layer="2014" to-port="2" />
		<edge from-layer="2012" from-port="0" to-layer="2014" to-port="3" />
		<edge from-layer="2013" from-port="0" to-layer="2014" to-port="4" />
		<edge from-layer="2014" from-port="5" to-layer="2019" to-port="0" />
		<edge from-layer="2015" from-port="0" to-layer="2016" to-port="0" />
		<edge from-layer="2016" from-port="1" to-layer="2018" to-port="0" />
		<edge from-layer="2017" from-port="0" to-layer="2018" to-port="1" />
		<edge from-layer="2018" from-port="2" to-layer="2019" to-port="1" />
		<edge from-layer="2019" from-port="2" to-layer="2021" to-port="0" />
		<edge from-layer="2020" from-port="0" to-layer="2021" to-port="1" />
		<edge from-layer="2021" from-port="2" to-layer="2022" to-port="0" />
		<edge from-layer="2022" from-port="1" to-layer="2027" to-port="0" />
		<edge from-layer="2023" from-port="0" to-layer="2027" to-port="1" />
		<edge from-layer="2024" from-port="0" to-layer="2027" to-port="2" />
		<edge from-layer="2025" from-port="0" to-layer="2027" to-port="3" />
		<edge from-layer="2026" from-port="0" to-layer="2027" to-port="4" />
		<edge from-layer="2027" from-port="5" to-layer="2028" to-port="1" />
		<edge from-layer="2028" from-port="2" to-layer="2033" to-port="0" />
		<edge from-layer="2029" from-port="0" to-layer="2033" to-port="1" />
		<edge from-layer="2030" from-port="0" to-layer="2033" to-port="2" />
		<edge from-layer="2031" from-port="0" to-layer="2033" to-port="3" />
		<edge from-layer="2032" from-port="0" to-layer="2033" to-port="4" />
		<edge from-layer="2033" from-port="5" to-layer="2047" to-port="0" />
		<edge from-layer="2034" from-port="0" to-layer="2035" to-port="0" />
		<edge from-layer="2035" from-port="1" to-layer="2037" to-port="0" />
		<edge from-layer="2036" from-port="0" to-layer="2037" to-port="1" />
		<edge from-layer="2037" from-port="2" to-layer="2038" to-port="1" />
		<edge from-layer="2038" from-port="2" to-layer="2040" to-port="0" />
		<edge from-layer="2039" from-port="0" to-layer="2040" to-port="1" />
		<edge from-layer="2040" from-port="2" to-layer="2041" to-port="0" />
		<edge from-layer="2041" from-port="1" to-layer="2046" to-port="0" />
		<edge from-layer="2042" from-port="0" to-layer="2046" to-port="1" />
		<edge from-layer="2043" from-port="0" to-layer="2046" to-port="2" />
		<edge from-layer="2044" from-port="0" to-layer="2046" to-port="3" />
		<edge from-layer="2045" from-port="0" to-layer="2046" to-port="4" />
		<edge from-layer="2046" from-port="5" to-layer="2047" to-port="1" />
		<edge from-layer="2047" from-port="2" to-layer="2052" to-port="0" />
		<edge from-layer="2048" from-port="0" to-layer="2049" to-port="0" />
		<edge from-layer="2049" from-port="1" to-layer="2051" to-port="0" />
		<edge from-layer="2050" from-port="0" to-layer="2051" to-port="1" />
		<edge from-layer="2051" from-port="2" to-layer="2052" to-port="1" />
		<edge from-layer="2052" from-port="2" to-layer="2054" to-port="0" />
		<edge from-layer="2053" from-port="0" to-layer="2054" to-port="1" />
		<edge from-layer="2054" from-port="2" to-layer="2055" to-port="0" />
		<edge from-layer="2055" from-port="1" to-layer="2060" to-port="0" />
		<edge from-layer="2056" from-port="0" to-layer="2060" to-port="1" />
		<edge from-layer="2057" from-port="0" to-layer="2060" to-port="2" />
		<edge from-layer="2058" from-port="0" to-layer="2060" to-port="3" />
		<edge from-layer="2059" from-port="0" to-layer="2060" to-port="4" />
		<edge from-layer="2060" from-port="5" to-layer="2061" to-port="3" />
		<edge from-layer="2061" from-port="4" to-layer="2066" to-port="0" />
		<edge from-layer="2062" from-port="0" to-layer="2063" to-port="0" />
		<edge from-layer="2063" from-port="1" to-layer="2065" to-port="0" />
		<edge from-layer="2064" from-port="0" to-layer="2065" to-port="1" />
		<edge from-layer="2065" from-port="2" to-layer="2066" to-port="1" />
		<edge from-layer="2066" from-port="2" to-layer="2068" to-port="0" />
		<edge from-layer="2067" from-port="0" to-layer="2068" to-port="1" />
		<edge from-layer="2068" from-port="2" to-layer="2069" to-port="0" />
		<edge from-layer="2069" from-port="1" to-layer="2074" to-port="0" />
		<edge from-layer="2070" from-port="0" to-layer="2074" to-port="1" />
		<edge from-layer="2071" from-port="0" to-layer="2074" to-port="2" />
		<edge from-layer="2072" from-port="0" to-layer="2074" to-port="3" />
		<edge from-layer="2073" from-port="0" to-layer="2074" to-port="4" />
		<edge from-layer="2074" from-port="5" to-layer="2408" to-port="0" />
		<edge from-layer="2074" from-port="5" to-layer="2114" to-port="0" />
		<edge from-layer="2074" from-port="5" to-layer="2079" to-port="0" />
		<edge from-layer="2075" from-port="0" to-layer="2076" to-port="0" />
		<edge from-layer="2076" from-port="1" to-layer="2078" to-port="0" />
		<edge from-layer="2077" from-port="0" to-layer="2078" to-port="1" />
		<edge from-layer="2078" from-port="2" to-layer="2079" to-port="1" />
		<edge from-layer="2079" from-port="2" to-layer="2081" to-port="0" />
		<edge from-layer="2080" from-port="0" to-layer="2081" to-port="1" />
		<edge from-layer="2081" from-port="2" to-layer="2082" to-port="0" />
		<edge from-layer="2082" from-port="1" to-layer="2087" to-port="0" />
		<edge from-layer="2083" from-port="0" to-layer="2087" to-port="1" />
		<edge from-layer="2084" from-port="0" to-layer="2087" to-port="2" />
		<edge from-layer="2085" from-port="0" to-layer="2087" to-port="3" />
		<edge from-layer="2086" from-port="0" to-layer="2087" to-port="4" />
		<edge from-layer="2087" from-port="5" to-layer="2092" to-port="0" />
		<edge from-layer="2088" from-port="0" to-layer="2089" to-port="0" />
		<edge from-layer="2089" from-port="1" to-layer="2091" to-port="0" />
		<edge from-layer="2090" from-port="0" to-layer="2091" to-port="1" />
		<edge from-layer="2091" from-port="2" to-layer="2092" to-port="1" />
		<edge from-layer="2092" from-port="2" to-layer="2094" to-port="0" />
		<edge from-layer="2093" from-port="0" to-layer="2094" to-port="1" />
		<edge from-layer="2094" from-port="2" to-layer="2095" to-port="0" />
		<edge from-layer="2095" from-port="1" to-layer="2100" to-port="0" />
		<edge from-layer="2096" from-port="0" to-layer="2100" to-port="1" />
		<edge from-layer="2097" from-port="0" to-layer="2100" to-port="2" />
		<edge from-layer="2098" from-port="0" to-layer="2100" to-port="3" />
		<edge from-layer="2099" from-port="0" to-layer="2100" to-port="4" />
		<edge from-layer="2100" from-port="5" to-layer="2105" to-port="0" />
		<edge from-layer="2101" from-port="0" to-layer="2102" to-port="0" />
		<edge from-layer="2102" from-port="1" to-layer="2104" to-port="0" />
		<edge from-layer="2103" from-port="0" to-layer="2104" to-port="1" />
		<edge from-layer="2104" from-port="2" to-layer="2105" to-port="1" />
		<edge from-layer="2105" from-port="2" to-layer="2107" to-port="0" />
		<edge from-layer="2106" from-port="0" to-layer="2107" to-port="1" />
		<edge from-layer="2107" from-port="2" to-layer="2109" to-port="0" />
		<edge from-layer="2108" from-port="0" to-layer="2109" to-port="1" />
		<edge from-layer="2109" from-port="2" to-layer="2324" to-port="1" />
		<edge from-layer="2110" from-port="0" to-layer="2111" to-port="0" />
		<edge from-layer="2111" from-port="1" to-layer="2113" to-port="0" />
		<edge from-layer="2112" from-port="0" to-layer="2113" to-port="1" />
		<edge from-layer="2113" from-port="2" to-layer="2114" to-port="1" />
		<edge from-layer="2114" from-port="2" to-layer="2116" to-port="0" />
		<edge from-layer="2115" from-port="0" to-layer="2116" to-port="1" />
		<edge from-layer="2116" from-port="2" to-layer="2117" to-port="0" />
		<edge from-layer="2117" from-port="1" to-layer="2122" to-port="0" />
		<edge from-layer="2118" from-port="0" to-layer="2122" to-port="1" />
		<edge from-layer="2119" from-port="0" to-layer="2122" to-port="2" />
		<edge from-layer="2120" from-port="0" to-layer="2122" to-port="3" />
		<edge from-layer="2121" from-port="0" to-layer="2122" to-port="4" />
		<edge from-layer="2122" from-port="5" to-layer="2123" to-port="0" />
		<edge from-layer="2123" from-port="2" to-layer="2128" to-port="0" />
		<edge from-layer="2124" from-port="0" to-layer="2125" to-port="0" />
		<edge from-layer="2125" from-port="1" to-layer="2127" to-port="0" />
		<edge from-layer="2126" from-port="0" to-layer="2127" to-port="1" />
		<edge from-layer="2127" from-port="2" to-layer="2128" to-port="1" />
		<edge from-layer="2128" from-port="2" to-layer="2130" to-port="0" />
		<edge from-layer="2129" from-port="0" to-layer="2130" to-port="1" />
		<edge from-layer="2130" from-port="2" to-layer="2131" to-port="0" />
		<edge from-layer="2131" from-port="1" to-layer="2136" to-port="0" />
		<edge from-layer="2132" from-port="0" to-layer="2136" to-port="1" />
		<edge from-layer="2133" from-port="0" to-layer="2136" to-port="2" />
		<edge from-layer="2134" from-port="0" to-layer="2136" to-port="3" />
		<edge from-layer="2135" from-port="0" to-layer="2136" to-port="4" />
		<edge from-layer="2136" from-port="5" to-layer="2139" to-port="0" />
		<edge from-layer="2137" from-port="0" to-layer="2139" to-port="1" />
		<edge from-layer="2138" from-port="0" to-layer="2139" to-port="2" />
		<edge from-layer="2139" from-port="3" to-layer="2275" to-port="0" />
		<edge from-layer="2139" from-port="4" to-layer="2144" to-port="0" />
		<edge from-layer="2139" from-port="4" to-layer="2275" to-port="1" />
		<edge from-layer="2139" from-port="4" to-layer="2166" to-port="0" />
		<edge from-layer="2140" from-port="0" to-layer="2141" to-port="0" />
		<edge from-layer="2141" from-port="1" to-layer="2143" to-port="0" />
		<edge from-layer="2142" from-port="0" to-layer="2143" to-port="1" />
		<edge from-layer="2143" from-port="2" to-layer="2144" to-port="1" />
		<edge from-layer="2144" from-port="2" to-layer="2146" to-port="0" />
		<edge from-layer="2145" from-port="0" to-layer="2146" to-port="1" />
		<edge from-layer="2146" from-port="2" to-layer="2147" to-port="0" />
		<edge from-layer="2147" from-port="1" to-layer="2152" to-port="0" />
		<edge from-layer="2148" from-port="0" to-layer="2152" to-port="1" />
		<edge from-layer="2149" from-port="0" to-layer="2152" to-port="2" />
		<edge from-layer="2150" from-port="0" to-layer="2152" to-port="3" />
		<edge from-layer="2151" from-port="0" to-layer="2152" to-port="4" />
		<edge from-layer="2152" from-port="5" to-layer="2157" to-port="0" />
		<edge from-layer="2153" from-port="0" to-layer="2154" to-port="0" />
		<edge from-layer="2154" from-port="1" to-layer="2156" to-port="0" />
		<edge from-layer="2155" from-port="0" to-layer="2156" to-port="1" />
		<edge from-layer="2156" from-port="2" to-layer="2157" to-port="1" />
		<edge from-layer="2157" from-port="2" to-layer="2159" to-port="0" />
		<edge from-layer="2158" from-port="0" to-layer="2159" to-port="1" />
		<edge from-layer="2159" from-port="2" to-layer="2160" to-port="0" />
		<edge from-layer="2160" from-port="1" to-layer="2165" to-port="0" />
		<edge from-layer="2161" from-port="0" to-layer="2165" to-port="1" />
		<edge from-layer="2162" from-port="0" to-layer="2165" to-port="2" />
		<edge from-layer="2163" from-port="0" to-layer="2165" to-port="3" />
		<edge from-layer="2164" from-port="0" to-layer="2165" to-port="4" />
		<edge from-layer="2165" from-port="5" to-layer="2166" to-port="1" />
		<edge from-layer="2166" from-port="2" to-layer="2171" to-port="0" />
		<edge from-layer="2167" from-port="0" to-layer="2171" to-port="1" />
		<edge from-layer="2168" from-port="0" to-layer="2171" to-port="2" />
		<edge from-layer="2169" from-port="0" to-layer="2171" to-port="3" />
		<edge from-layer="2170" from-port="0" to-layer="2171" to-port="4" />
		<edge from-layer="2171" from-port="5" to-layer="2176" to-port="0" />
		<edge from-layer="2171" from-port="5" to-layer="2238" to-port="0" />
		<edge from-layer="2172" from-port="0" to-layer="2173" to-port="0" />
		<edge from-layer="2173" from-port="1" to-layer="2175" to-port="0" />
		<edge from-layer="2174" from-port="0" to-layer="2175" to-port="1" />
		<edge from-layer="2175" from-port="2" to-layer="2176" to-port="1" />
		<edge from-layer="2176" from-port="2" to-layer="2178" to-port="0" />
		<edge from-layer="2177" from-port="0" to-layer="2178" to-port="1" />
		<edge from-layer="2178" from-port="2" to-layer="2183" to-port="0" />
		<edge from-layer="2179" from-port="0" to-layer="2183" to-port="1" />
		<edge from-layer="2180" from-port="0" to-layer="2183" to-port="2" />
		<edge from-layer="2181" from-port="0" to-layer="2183" to-port="3" />
		<edge from-layer="2182" from-port="0" to-layer="2183" to-port="4" />
		<edge from-layer="2183" from-port="5" to-layer="2185" to-port="0" />
		<edge from-layer="2184" from-port="0" to-layer="2185" to-port="1" />
		<edge from-layer="2185" from-port="2" to-layer="2188" to-port="0" />
		<edge from-layer="2186" from-port="0" to-layer="2188" to-port="1" />
		<edge from-layer="2187" from-port="0" to-layer="2188" to-port="2" />
		<edge from-layer="2188" from-port="5" to-layer="2198" to-port="0" />
		<edge from-layer="2188" from-port="3" to-layer="2189" to-port="0" />
		<edge from-layer="2188" from-port="4" to-layer="2189" to-port="1" />
		<edge from-layer="2188" from-port="5" to-layer="2207" to-port="0" />
		<edge from-layer="2189" from-port="2" to-layer="2191" to-port="0" />
		<edge from-layer="2190" from-port="0" to-layer="2191" to-port="1" />
		<edge from-layer="2191" from-port="2" to-layer="2192" to-port="0" />
		<edge from-layer="2192" from-port="1" to-layer="2197" to-port="0" />
		<edge from-layer="2193" from-port="0" to-layer="2197" to-port="1" />
		<edge from-layer="2194" from-port="0" to-layer="2197" to-port="2" />
		<edge from-layer="2195" from-port="0" to-layer="2197" to-port="3" />
		<edge from-layer="2196" from-port="0" to-layer="2197" to-port="4" />
		<edge from-layer="2197" from-port="5" to-layer="2198" to-port="1" />
		<edge from-layer="2198" from-port="2" to-layer="2203" to-port="0" />
		<edge from-layer="2199" from-port="0" to-layer="2203" to-port="1" />
		<edge from-layer="2200" from-port="0" to-layer="2203" to-port="2" />
		<edge from-layer="2201" from-port="0" to-layer="2203" to-port="3" />
		<edge from-layer="2202" from-port="0" to-layer="2203" to-port="4" />
		<edge from-layer="2203" from-port="5" to-layer="2205" to-port="0" />
		<edge from-layer="2204" from-port="0" to-layer="2205" to-port="1" />
		<edge from-layer="2205" from-port="2" to-layer="2220" to-port="0" />
		<edge from-layer="2206" from-port="0" to-layer="2207" to-port="1" />
		<edge from-layer="2207" from-port="2" to-layer="2212" to-port="0" />
		<edge from-layer="2208" from-port="0" to-layer="2209" to-port="0" />
		<edge from-layer="2209" from-port="1" to-layer="2211" to-port="0" />
		<edge from-layer="2210" from-port="0" to-layer="2211" to-port="1" />
		<edge from-layer="2211" from-port="2" to-layer="2212" to-port="1" />
		<edge from-layer="2212" from-port="2" to-layer="2214" to-port="0" />
		<edge from-layer="2213" from-port="0" to-layer="2214" to-port="1" />
		<edge from-layer="2214" from-port="2" to-layer="2219" to-port="0" />
		<edge from-layer="2215" from-port="0" to-layer="2219" to-port="1" />
		<edge from-layer="2216" from-port="0" to-layer="2219" to-port="2" />
		<edge from-layer="2217" from-port="0" to-layer="2219" to-port="3" />
		<edge from-layer="2218" from-port="0" to-layer="2219" to-port="4" />
		<edge from-layer="2219" from-port="5" to-layer="2220" to-port="1" />
		<edge from-layer="2220" from-port="2" to-layer="2225" to-port="0" />
		<edge from-layer="2221" from-port="0" to-layer="2225" to-port="1" />
		<edge from-layer="2222" from-port="0" to-layer="2225" to-port="2" />
		<edge from-layer="2223" from-port="0" to-layer="2225" to-port="3" />
		<edge from-layer="2224" from-port="0" to-layer="2225" to-port="4" />
		<edge from-layer="2225" from-port="5" to-layer="2230" to-port="0" />
		<edge from-layer="2226" from-port="0" to-layer="2227" to-port="0" />
		<edge from-layer="2227" from-port="1" to-layer="2229" to-port="0" />
		<edge from-layer="2228" from-port="0" to-layer="2229" to-port="1" />
		<edge from-layer="2229" from-port="2" to-layer="2230" to-port="1" />
		<edge from-layer="2230" from-port="2" to-layer="2232" to-port="0" />
		<edge from-layer="2231" from-port="0" to-layer="2232" to-port="1" />
		<edge from-layer="2232" from-port="2" to-layer="2237" to-port="0" />
		<edge from-layer="2233" from-port="0" to-layer="2237" to-port="1" />
		<edge from-layer="2234" from-port="0" to-layer="2237" to-port="2" />
		<edge from-layer="2235" from-port="0" to-layer="2237" to-port="3" />
		<edge from-layer="2236" from-port="0" to-layer="2237" to-port="4" />
		<edge from-layer="2237" from-port="5" to-layer="2238" to-port="1" />
		<edge from-layer="2238" from-port="2" to-layer="2243" to-port="0" />
		<edge from-layer="2239" from-port="0" to-layer="2243" to-port="1" />
		<edge from-layer="2240" from-port="0" to-layer="2243" to-port="2" />
		<edge from-layer="2241" from-port="0" to-layer="2243" to-port="3" />
		<edge from-layer="2242" from-port="0" to-layer="2243" to-port="4" />
		<edge from-layer="2243" from-port="5" to-layer="2248" to-port="0" />
		<edge from-layer="2243" from-port="5" to-layer="2269" to-port="0" />
		<edge from-layer="2244" from-port="0" to-layer="2245" to-port="0" />
		<edge from-layer="2245" from-port="1" to-layer="2247" to-port="0" />
		<edge from-layer="2246" from-port="0" to-layer="2247" to-port="1" />
		<edge from-layer="2247" from-port="2" to-layer="2248" to-port="1" />
		<edge from-layer="2248" from-port="2" to-layer="2250" to-port="0" />
		<edge from-layer="2249" from-port="0" to-layer="2250" to-port="1" />
		<edge from-layer="2250" from-port="2" to-layer="2251" to-port="0" />
		<edge from-layer="2251" from-port="1" to-layer="2256" to-port="0" />
		<edge from-layer="2252" from-port="0" to-layer="2256" to-port="1" />
		<edge from-layer="2253" from-port="0" to-layer="2256" to-port="2" />
		<edge from-layer="2254" from-port="0" to-layer="2256" to-port="3" />
		<edge from-layer="2255" from-port="0" to-layer="2256" to-port="4" />
		<edge from-layer="2256" from-port="5" to-layer="2261" to-port="0" />
		<edge from-layer="2257" from-port="0" to-layer="2258" to-port="0" />
		<edge from-layer="2258" from-port="1" to-layer="2260" to-port="0" />
		<edge from-layer="2259" from-port="0" to-layer="2260" to-port="1" />
		<edge from-layer="2260" from-port="2" to-layer="2261" to-port="1" />
		<edge from-layer="2261" from-port="2" to-layer="2263" to-port="0" />
		<edge from-layer="2262" from-port="0" to-layer="2263" to-port="1" />
		<edge from-layer="2263" from-port="2" to-layer="2268" to-port="0" />
		<edge from-layer="2264" from-port="0" to-layer="2268" to-port="1" />
		<edge from-layer="2265" from-port="0" to-layer="2268" to-port="2" />
		<edge from-layer="2266" from-port="0" to-layer="2268" to-port="3" />
		<edge from-layer="2267" from-port="0" to-layer="2268" to-port="4" />
		<edge from-layer="2268" from-port="5" to-layer="2269" to-port="1" />
		<edge from-layer="2269" from-port="2" to-layer="2274" to-port="0" />
		<edge from-layer="2270" from-port="0" to-layer="2274" to-port="1" />
		<edge from-layer="2271" from-port="0" to-layer="2274" to-port="2" />
		<edge from-layer="2272" from-port="0" to-layer="2274" to-port="3" />
		<edge from-layer="2273" from-port="0" to-layer="2274" to-port="4" />
		<edge from-layer="2274" from-port="5" to-layer="2275" to-port="2" />
		<edge from-layer="2275" from-port="3" to-layer="2280" to-port="0" />
		<edge from-layer="2276" from-port="0" to-layer="2277" to-port="0" />
		<edge from-layer="2277" from-port="1" to-layer="2279" to-port="0" />
		<edge from-layer="2278" from-port="0" to-layer="2279" to-port="1" />
		<edge from-layer="2279" from-port="2" to-layer="2280" to-port="1" />
		<edge from-layer="2280" from-port="2" to-layer="2282" to-port="0" />
		<edge from-layer="2281" from-port="0" to-layer="2282" to-port="1" />
		<edge from-layer="2282" from-port="2" to-layer="2283" to-port="0" />
		<edge from-layer="2283" from-port="1" to-layer="2288" to-port="0" />
		<edge from-layer="2284" from-port="0" to-layer="2288" to-port="1" />
		<edge from-layer="2285" from-port="0" to-layer="2288" to-port="2" />
		<edge from-layer="2286" from-port="0" to-layer="2288" to-port="3" />
		<edge from-layer="2287" from-port="0" to-layer="2288" to-port="4" />
		<edge from-layer="2288" from-port="5" to-layer="2469" to-port="0" />
		<edge from-layer="2288" from-port="5" to-layer="2293" to-port="0" />
		<edge from-layer="2289" from-port="0" to-layer="2290" to-port="0" />
		<edge from-layer="2290" from-port="1" to-layer="2292" to-port="0" />
		<edge from-layer="2291" from-port="0" to-layer="2292" to-port="1" />
		<edge from-layer="2292" from-port="2" to-layer="2293" to-port="1" />
		<edge from-layer="2293" from-port="2" to-layer="2295" to-port="0" />
		<edge from-layer="2294" from-port="0" to-layer="2295" to-port="1" />
		<edge from-layer="2295" from-port="2" to-layer="2296" to-port="0" />
		<edge from-layer="2296" from-port="1" to-layer="2301" to-port="0" />
		<edge from-layer="2297" from-port="0" to-layer="2301" to-port="1" />
		<edge from-layer="2298" from-port="0" to-layer="2301" to-port="2" />
		<edge from-layer="2299" from-port="0" to-layer="2301" to-port="3" />
		<edge from-layer="2300" from-port="0" to-layer="2301" to-port="4" />
		<edge from-layer="2301" from-port="5" to-layer="2306" to-port="0" />
		<edge from-layer="2302" from-port="0" to-layer="2303" to-port="0" />
		<edge from-layer="2303" from-port="1" to-layer="2305" to-port="0" />
		<edge from-layer="2304" from-port="0" to-layer="2305" to-port="1" />
		<edge from-layer="2305" from-port="2" to-layer="2306" to-port="1" />
		<edge from-layer="2306" from-port="2" to-layer="2308" to-port="0" />
		<edge from-layer="2307" from-port="0" to-layer="2308" to-port="1" />
		<edge from-layer="2308" from-port="2" to-layer="2309" to-port="0" />
		<edge from-layer="2309" from-port="1" to-layer="2314" to-port="0" />
		<edge from-layer="2310" from-port="0" to-layer="2314" to-port="1" />
		<edge from-layer="2311" from-port="0" to-layer="2314" to-port="2" />
		<edge from-layer="2312" from-port="0" to-layer="2314" to-port="3" />
		<edge from-layer="2313" from-port="0" to-layer="2314" to-port="4" />
		<edge from-layer="2314" from-port="5" to-layer="2319" to-port="0" />
		<edge from-layer="2315" from-port="0" to-layer="2316" to-port="0" />
		<edge from-layer="2316" from-port="1" to-layer="2318" to-port="0" />
		<edge from-layer="2317" from-port="0" to-layer="2318" to-port="1" />
		<edge from-layer="2318" from-port="2" to-layer="2319" to-port="1" />
		<edge from-layer="2319" from-port="2" to-layer="2321" to-port="0" />
		<edge from-layer="2320" from-port="0" to-layer="2321" to-port="1" />
		<edge from-layer="2321" from-port="2" to-layer="2323" to-port="0" />
		<edge from-layer="2322" from-port="0" to-layer="2323" to-port="1" />
		<edge from-layer="2323" from-port="2" to-layer="2324" to-port="2" />
		<edge from-layer="2324" from-port="3" to-layer="2337" to-port="0" />
		<edge from-layer="2324" from-port="3" to-layer="2326" to-port="0" />
		<edge from-layer="2325" from-port="0" to-layer="2560" to-port="1" />
		<edge from-layer="2325" from-port="0" to-layer="2328" to-port="1" />
		<edge from-layer="2325" from-port="0" to-layer="2337" to-port="1" />
		<edge from-layer="2326" from-port="1" to-layer="2328" to-port="0" />
		<edge from-layer="2327" from-port="0" to-layer="2328" to-port="2" />
		<edge from-layer="2327" from-port="0" to-layer="2332" to-port="1" />
		<edge from-layer="2328" from-port="3" to-layer="2331" to-port="0" />
		<edge from-layer="2328" from-port="3" to-layer="2330" to-port="0" />
		<edge from-layer="2329" from-port="0" to-layer="2330" to-port="1" />
		<edge from-layer="2329" from-port="0" to-layer="2331" to-port="1" />
		<edge from-layer="2330" from-port="2" to-layer="2334" to-port="0" />
		<edge from-layer="2331" from-port="2" to-layer="2332" to-port="0" />
		<edge from-layer="2332" from-port="2" to-layer="2333" to-port="0" />
		<edge from-layer="2333" from-port="1" to-layer="2334" to-port="1" />
		<edge from-layer="2334" from-port="2" to-layer="2336" to-port="0" />
		<edge from-layer="2335" from-port="0" to-layer="2336" to-port="1" />
		<edge from-layer="2336" from-port="2" to-layer="2337" to-port="2" />
		<edge from-layer="2337" from-port="4" to-layer="2339" to-port="1" />
		<edge from-layer="2337" from-port="3" to-layer="2338" to-port="1" />
		<edge from-layer="2338" from-port="2" to-layer="2340" to-port="0" />
		<edge from-layer="2339" from-port="2" to-layer="2340" to-port="1" />
		<edge from-layer="2340" from-port="2" to-layer="2342" to-port="0" />
		<edge from-layer="2341" from-port="0" to-layer="2342" to-port="1" />
		<edge from-layer="2342" from-port="2" to-layer="2528" to-port="0" />
		<edge from-layer="2343" from-port="0" to-layer="2344" to-port="0" />
		<edge from-layer="2344" from-port="1" to-layer="2346" to-port="0" />
		<edge from-layer="2345" from-port="0" to-layer="2346" to-port="1" />
		<edge from-layer="2346" from-port="2" to-layer="2347" to-port="1" />
		<edge from-layer="2347" from-port="2" to-layer="2349" to-port="0" />
		<edge from-layer="2348" from-port="0" to-layer="2349" to-port="1" />
		<edge from-layer="2349" from-port="2" to-layer="2350" to-port="0" />
		<edge from-layer="2350" from-port="1" to-layer="2355" to-port="0" />
		<edge from-layer="2351" from-port="0" to-layer="2355" to-port="1" />
		<edge from-layer="2352" from-port="0" to-layer="2355" to-port="2" />
		<edge from-layer="2353" from-port="0" to-layer="2355" to-port="3" />
		<edge from-layer="2354" from-port="0" to-layer="2355" to-port="4" />
		<edge from-layer="2355" from-port="5" to-layer="2360" to-port="0" />
		<edge from-layer="2356" from-port="0" to-layer="2357" to-port="0" />
		<edge from-layer="2357" from-port="1" to-layer="2359" to-port="0" />
		<edge from-layer="2358" from-port="0" to-layer="2359" to-port="1" />
		<edge from-layer="2359" from-port="2" to-layer="2360" to-port="1" />
		<edge from-layer="2360" from-port="2" to-layer="2362" to-port="0" />
		<edge from-layer="2361" from-port="0" to-layer="2362" to-port="1" />
		<edge from-layer="2362" from-port="2" to-layer="2363" to-port="0" />
		<edge from-layer="2363" from-port="1" to-layer="2368" to-port="0" />
		<edge from-layer="2364" from-port="0" to-layer="2368" to-port="1" />
		<edge from-layer="2365" from-port="0" to-layer="2368" to-port="2" />
		<edge from-layer="2366" from-port="0" to-layer="2368" to-port="3" />
		<edge from-layer="2367" from-port="0" to-layer="2368" to-port="4" />
		<edge from-layer="2368" from-port="5" to-layer="2373" to-port="0" />
		<edge from-layer="2369" from-port="0" to-layer="2370" to-port="0" />
		<edge from-layer="2370" from-port="1" to-layer="2372" to-port="0" />
		<edge from-layer="2371" from-port="0" to-layer="2372" to-port="1" />
		<edge from-layer="2372" from-port="2" to-layer="2373" to-port="1" />
		<edge from-layer="2373" from-port="2" to-layer="2375" to-port="0" />
		<edge from-layer="2374" from-port="0" to-layer="2375" to-port="1" />
		<edge from-layer="2375" from-port="2" to-layer="2376" to-port="0" />
		<edge from-layer="2376" from-port="1" to-layer="2381" to-port="0" />
		<edge from-layer="2377" from-port="0" to-layer="2381" to-port="1" />
		<edge from-layer="2378" from-port="0" to-layer="2381" to-port="2" />
		<edge from-layer="2379" from-port="0" to-layer="2381" to-port="3" />
		<edge from-layer="2380" from-port="0" to-layer="2381" to-port="4" />
		<edge from-layer="2381" from-port="5" to-layer="2386" to-port="0" />
		<edge from-layer="2382" from-port="0" to-layer="2383" to-port="0" />
		<edge from-layer="2383" from-port="1" to-layer="2385" to-port="0" />
		<edge from-layer="2384" from-port="0" to-layer="2385" to-port="1" />
		<edge from-layer="2385" from-port="2" to-layer="2386" to-port="1" />
		<edge from-layer="2386" from-port="2" to-layer="2388" to-port="0" />
		<edge from-layer="2387" from-port="0" to-layer="2388" to-port="1" />
		<edge from-layer="2388" from-port="2" to-layer="2389" to-port="0" />
		<edge from-layer="2389" from-port="1" to-layer="2394" to-port="0" />
		<edge from-layer="2390" from-port="0" to-layer="2394" to-port="1" />
		<edge from-layer="2391" from-port="0" to-layer="2394" to-port="2" />
		<edge from-layer="2392" from-port="0" to-layer="2394" to-port="3" />
		<edge from-layer="2393" from-port="0" to-layer="2394" to-port="4" />
		<edge from-layer="2394" from-port="5" to-layer="2399" to-port="0" />
		<edge from-layer="2395" from-port="0" to-layer="2396" to-port="0" />
		<edge from-layer="2396" from-port="1" to-layer="2398" to-port="0" />
		<edge from-layer="2397" from-port="0" to-layer="2398" to-port="1" />
		<edge from-layer="2398" from-port="2" to-layer="2399" to-port="1" />
		<edge from-layer="2399" from-port="2" to-layer="2401" to-port="0" />
		<edge from-layer="2400" from-port="0" to-layer="2401" to-port="1" />
		<edge from-layer="2401" from-port="2" to-layer="2403" to-port="0" />
		<edge from-layer="2402" from-port="0" to-layer="2403" to-port="1" />
		<edge from-layer="2403" from-port="2" to-layer="2526" to-port="0" />
		<edge from-layer="2404" from-port="0" to-layer="2405" to-port="0" />
		<edge from-layer="2405" from-port="1" to-layer="2407" to-port="0" />
		<edge from-layer="2406" from-port="0" to-layer="2407" to-port="1" />
		<edge from-layer="2407" from-port="2" to-layer="2408" to-port="1" />
		<edge from-layer="2408" from-port="2" to-layer="2410" to-port="0" />
		<edge from-layer="2409" from-port="0" to-layer="2410" to-port="1" />
		<edge from-layer="2410" from-port="2" to-layer="2411" to-port="0" />
		<edge from-layer="2411" from-port="1" to-layer="2416" to-port="0" />
		<edge from-layer="2412" from-port="0" to-layer="2416" to-port="1" />
		<edge from-layer="2413" from-port="0" to-layer="2416" to-port="2" />
		<edge from-layer="2414" from-port="0" to-layer="2416" to-port="3" />
		<edge from-layer="2415" from-port="0" to-layer="2416" to-port="4" />
		<edge from-layer="2416" from-port="5" to-layer="2421" to-port="0" />
		<edge from-layer="2417" from-port="0" to-layer="2418" to-port="0" />
		<edge from-layer="2418" from-port="1" to-layer="2420" to-port="0" />
		<edge from-layer="2419" from-port="0" to-layer="2420" to-port="1" />
		<edge from-layer="2420" from-port="2" to-layer="2421" to-port="1" />
		<edge from-layer="2421" from-port="2" to-layer="2423" to-port="0" />
		<edge from-layer="2422" from-port="0" to-layer="2423" to-port="1" />
		<edge from-layer="2423" from-port="2" to-layer="2424" to-port="0" />
		<edge from-layer="2424" from-port="1" to-layer="2429" to-port="0" />
		<edge from-layer="2425" from-port="0" to-layer="2429" to-port="1" />
		<edge from-layer="2426" from-port="0" to-layer="2429" to-port="2" />
		<edge from-layer="2427" from-port="0" to-layer="2429" to-port="3" />
		<edge from-layer="2428" from-port="0" to-layer="2429" to-port="4" />
		<edge from-layer="2429" from-port="5" to-layer="2434" to-port="0" />
		<edge from-layer="2430" from-port="0" to-layer="2431" to-port="0" />
		<edge from-layer="2431" from-port="1" to-layer="2433" to-port="0" />
		<edge from-layer="2432" from-port="0" to-layer="2433" to-port="1" />
		<edge from-layer="2433" from-port="2" to-layer="2434" to-port="1" />
		<edge from-layer="2434" from-port="2" to-layer="2436" to-port="0" />
		<edge from-layer="2435" from-port="0" to-layer="2436" to-port="1" />
		<edge from-layer="2436" from-port="2" to-layer="2437" to-port="0" />
		<edge from-layer="2437" from-port="1" to-layer="2442" to-port="0" />
		<edge from-layer="2438" from-port="0" to-layer="2442" to-port="1" />
		<edge from-layer="2439" from-port="0" to-layer="2442" to-port="2" />
		<edge from-layer="2440" from-port="0" to-layer="2442" to-port="3" />
		<edge from-layer="2441" from-port="0" to-layer="2442" to-port="4" />
		<edge from-layer="2442" from-port="5" to-layer="2447" to-port="0" />
		<edge from-layer="2443" from-port="0" to-layer="2444" to-port="0" />
		<edge from-layer="2444" from-port="1" to-layer="2446" to-port="0" />
		<edge from-layer="2445" from-port="0" to-layer="2446" to-port="1" />
		<edge from-layer="2446" from-port="2" to-layer="2447" to-port="1" />
		<edge from-layer="2447" from-port="2" to-layer="2449" to-port="0" />
		<edge from-layer="2448" from-port="0" to-layer="2449" to-port="1" />
		<edge from-layer="2449" from-port="2" to-layer="2450" to-port="0" />
		<edge from-layer="2450" from-port="1" to-layer="2455" to-port="0" />
		<edge from-layer="2451" from-port="0" to-layer="2455" to-port="1" />
		<edge from-layer="2452" from-port="0" to-layer="2455" to-port="2" />
		<edge from-layer="2453" from-port="0" to-layer="2455" to-port="3" />
		<edge from-layer="2454" from-port="0" to-layer="2455" to-port="4" />
		<edge from-layer="2455" from-port="5" to-layer="2460" to-port="0" />
		<edge from-layer="2456" from-port="0" to-layer="2457" to-port="0" />
		<edge from-layer="2457" from-port="1" to-layer="2459" to-port="0" />
		<edge from-layer="2458" from-port="0" to-layer="2459" to-port="1" />
		<edge from-layer="2459" from-port="2" to-layer="2460" to-port="1" />
		<edge from-layer="2460" from-port="2" to-layer="2462" to-port="0" />
		<edge from-layer="2461" from-port="0" to-layer="2462" to-port="1" />
		<edge from-layer="2462" from-port="2" to-layer="2464" to-port="0" />
		<edge from-layer="2463" from-port="0" to-layer="2464" to-port="1" />
		<edge from-layer="2464" from-port="2" to-layer="2526" to-port="1" />
		<edge from-layer="2465" from-port="0" to-layer="2466" to-port="0" />
		<edge from-layer="2466" from-port="1" to-layer="2468" to-port="0" />
		<edge from-layer="2467" from-port="0" to-layer="2468" to-port="1" />
		<edge from-layer="2468" from-port="2" to-layer="2469" to-port="1" />
		<edge from-layer="2469" from-port="2" to-layer="2471" to-port="0" />
		<edge from-layer="2470" from-port="0" to-layer="2471" to-port="1" />
		<edge from-layer="2471" from-port="2" to-layer="2472" to-port="0" />
		<edge from-layer="2472" from-port="1" to-layer="2477" to-port="0" />
		<edge from-layer="2473" from-port="0" to-layer="2477" to-port="1" />
		<edge from-layer="2474" from-port="0" to-layer="2477" to-port="2" />
		<edge from-layer="2475" from-port="0" to-layer="2477" to-port="3" />
		<edge from-layer="2476" from-port="0" to-layer="2477" to-port="4" />
		<edge from-layer="2477" from-port="5" to-layer="2482" to-port="0" />
		<edge from-layer="2478" from-port="0" to-layer="2479" to-port="0" />
		<edge from-layer="2479" from-port="1" to-layer="2481" to-port="0" />
		<edge from-layer="2480" from-port="0" to-layer="2481" to-port="1" />
		<edge from-layer="2481" from-port="2" to-layer="2482" to-port="1" />
		<edge from-layer="2482" from-port="2" to-layer="2484" to-port="0" />
		<edge from-layer="2483" from-port="0" to-layer="2484" to-port="1" />
		<edge from-layer="2484" from-port="2" to-layer="2485" to-port="0" />
		<edge from-layer="2485" from-port="1" to-layer="2490" to-port="0" />
		<edge from-layer="2486" from-port="0" to-layer="2490" to-port="1" />
		<edge from-layer="2487" from-port="0" to-layer="2490" to-port="2" />
		<edge from-layer="2488" from-port="0" to-layer="2490" to-port="3" />
		<edge from-layer="2489" from-port="0" to-layer="2490" to-port="4" />
		<edge from-layer="2490" from-port="5" to-layer="2495" to-port="0" />
		<edge from-layer="2491" from-port="0" to-layer="2492" to-port="0" />
		<edge from-layer="2492" from-port="1" to-layer="2494" to-port="0" />
		<edge from-layer="2493" from-port="0" to-layer="2494" to-port="1" />
		<edge from-layer="2494" from-port="2" to-layer="2495" to-port="1" />
		<edge from-layer="2495" from-port="2" to-layer="2497" to-port="0" />
		<edge from-layer="2496" from-port="0" to-layer="2497" to-port="1" />
		<edge from-layer="2497" from-port="2" to-layer="2498" to-port="0" />
		<edge from-layer="2498" from-port="1" to-layer="2503" to-port="0" />
		<edge from-layer="2499" from-port="0" to-layer="2503" to-port="1" />
		<edge from-layer="2500" from-port="0" to-layer="2503" to-port="2" />
		<edge from-layer="2501" from-port="0" to-layer="2503" to-port="3" />
		<edge from-layer="2502" from-port="0" to-layer="2503" to-port="4" />
		<edge from-layer="2503" from-port="5" to-layer="2508" to-port="0" />
		<edge from-layer="2504" from-port="0" to-layer="2505" to-port="0" />
		<edge from-layer="2505" from-port="1" to-layer="2507" to-port="0" />
		<edge from-layer="2506" from-port="0" to-layer="2507" to-port="1" />
		<edge from-layer="2507" from-port="2" to-layer="2508" to-port="1" />
		<edge from-layer="2508" from-port="2" to-layer="2510" to-port="0" />
		<edge from-layer="2509" from-port="0" to-layer="2510" to-port="1" />
		<edge from-layer="2510" from-port="2" to-layer="2511" to-port="0" />
		<edge from-layer="2511" from-port="1" to-layer="2516" to-port="0" />
		<edge from-layer="2512" from-port="0" to-layer="2516" to-port="1" />
		<edge from-layer="2513" from-port="0" to-layer="2516" to-port="2" />
		<edge from-layer="2514" from-port="0" to-layer="2516" to-port="3" />
		<edge from-layer="2515" from-port="0" to-layer="2516" to-port="4" />
		<edge from-layer="2516" from-port="5" to-layer="2521" to-port="0" />
		<edge from-layer="2517" from-port="0" to-layer="2518" to-port="0" />
		<edge from-layer="2518" from-port="1" to-layer="2520" to-port="0" />
		<edge from-layer="2519" from-port="0" to-layer="2520" to-port="1" />
		<edge from-layer="2520" from-port="2" to-layer="2521" to-port="1" />
		<edge from-layer="2521" from-port="2" to-layer="2523" to-port="0" />
		<edge from-layer="2522" from-port="0" to-layer="2523" to-port="1" />
		<edge from-layer="2523" from-port="2" to-layer="2525" to-port="0" />
		<edge from-layer="2524" from-port="0" to-layer="2525" to-port="1" />
		<edge from-layer="2525" from-port="2" to-layer="2526" to-port="2" />
		<edge from-layer="2526" from-port="3" to-layer="2527" to-port="0" />
		<edge from-layer="2527" from-port="1" to-layer="2528" to-port="1" />
		<edge from-layer="2528" from-port="2" to-layer="2530" to-port="0" />
		<edge from-layer="2529" from-port="0" to-layer="2530" to-port="1" />
		<edge from-layer="2530" from-port="2" to-layer="2533" to-port="0" />
		<edge from-layer="2531" from-port="0" to-layer="2533" to-port="1" />
		<edge from-layer="2531" from-port="0" to-layer="2534" to-port="1" />
		<edge from-layer="2531" from-port="0" to-layer="2537" to-port="1" />
		<edge from-layer="2532" from-port="0" to-layer="2533" to-port="2" />
		<edge from-layer="2533" from-port="4" to-layer="2534" to-port="0" />
		<edge from-layer="2533" from-port="3" to-layer="2571" to-port="0" />
		<edge from-layer="2533" from-port="4" to-layer="2547" to-port="0" />
		<edge from-layer="2533" from-port="4" to-layer="2543" to-port="0" />
		<edge from-layer="2534" from-port="2" to-layer="2536" to-port="0" />
		<edge from-layer="2535" from-port="0" to-layer="2536" to-port="1" />
		<edge from-layer="2535" from-port="0" to-layer="2546" to-port="1" />
		<edge from-layer="2536" from-port="3" to-layer="2537" to-port="0" />
		<edge from-layer="2537" from-port="2" to-layer="2562" to-port="0" />
		<edge from-layer="2537" from-port="2" to-layer="2539" to-port="0" />
		<edge from-layer="2537" from-port="2" to-layer="2541" to-port="0" />
		<edge from-layer="2538" from-port="0" to-layer="2539" to-port="1" />
		<edge from-layer="2539" from-port="2" to-layer="2567" to-port="0" />
		<edge from-layer="2540" from-port="0" to-layer="2541" to-port="1" />
		<edge from-layer="2541" from-port="2" to-layer="2542" to-port="0" />
		<edge from-layer="2542" from-port="1" to-layer="2543" to-port="1" />
		<edge from-layer="2543" from-port="2" to-layer="2545" to-port="0" />
		<edge from-layer="2544" from-port="0" to-layer="2545" to-port="1" />
		<edge from-layer="2545" from-port="2" to-layer="2546" to-port="0" />
		<edge from-layer="2546" from-port="3" to-layer="2551" to-port="0" />
		<edge from-layer="2546" from-port="3" to-layer="2573" to-port="0" />
		<edge from-layer="2546" from-port="2" to-layer="2572" to-port="0" />
		<edge from-layer="2547" from-port="1" to-layer="2557" to-port="0" />
		<edge from-layer="2547" from-port="1" to-layer="2550" to-port="0" />
		<edge from-layer="2548" from-port="0" to-layer="2550" to-port="1" />
		<edge from-layer="2548" from-port="0" to-layer="2574" to-port="1" />
		<edge from-layer="2548" from-port="0" to-layer="2572" to-port="1" />
		<edge from-layer="2549" from-port="0" to-layer="2550" to-port="2" />
		<edge from-layer="2550" from-port="3" to-layer="2551" to-port="1" />
		<edge from-layer="2550" from-port="3" to-layer="2573" to-port="1" />
		<edge from-layer="2551" from-port="2" to-layer="2552" to-port="0" />
		<edge from-layer="2552" from-port="1" to-layer="2553" to-port="0" />
		<edge from-layer="2553" from-port="1" to-layer="2566" to-port="0" />
		<edge from-layer="2554" from-port="0" to-layer="2559" to-port="0" />
		<edge from-layer="2555" from-port="0" to-layer="2557" to-port="1" />
		<edge from-layer="2556" from-port="0" to-layer="2557" to-port="2" />
		<edge from-layer="2557" from-port="3" to-layer="2559" to-port="1" />
		<edge from-layer="2558" from-port="0" to-layer="2559" to-port="2" />
		<edge from-layer="2559" from-port="3" to-layer="2560" to-port="0" />
		<edge from-layer="2560" from-port="2" to-layer="2561" to-port="0" />
		<edge from-layer="2561" from-port="1" to-layer="2565" to-port="0" />
		<edge from-layer="2562" from-port="1" to-layer="2564" to-port="0" />
		<edge from-layer="2563" from-port="0" to-layer="2567" to-port="2" />
		<edge from-layer="2563" from-port="0" to-layer="2564" to-port="1" />
		<edge from-layer="2564" from-port="3" to-layer="2565" to-port="1" />
		<edge from-layer="2565" from-port="2" to-layer="2566" to-port="1" />
		<edge from-layer="2566" from-port="2" to-layer="2567" to-port="1" />
		<edge from-layer="2567" from-port="3" to-layer="2569" to-port="0" />
		<edge from-layer="2568" from-port="0" to-layer="2569" to-port="1" />
		<edge from-layer="2569" from-port="2" to-layer="2570" to-port="0" />
		<edge from-layer="2570" from-port="1" to-layer="2571" to-port="1" />
		<edge from-layer="2571" from-port="2" to-layer="2576" to-port="0" />
		<edge from-layer="2572" from-port="2" to-layer="2576" to-port="1" />
		<edge from-layer="2573" from-port="2" to-layer="2574" to-port="0" />
		<edge from-layer="2574" from-port="2" to-layer="2575" to-port="0" />
		<edge from-layer="2575" from-port="1" to-layer="2576" to-port="2" />
		<edge from-layer="2576" from-port="3" to-layer="2577" to-port="0" />
	</edges>
	<rt_info>
		<Runtime_version value="2026.0.0-20965-c6d6a13a886-releases/2026/0" />
		<conversion_parameters>
			<framework value="pytorch" />
			<is_python_object value="True" />
		</conversion_parameters>
		<model_info>
			<iou_threshold value="0.7" />
			<labels value="person bicycle car motorcycle airplane bus train truck boat traffic_light fire_hydrant stop_sign parking_meter bench bird cat dog horse sheep cow elephant bear zebra giraffe backpack umbrella handbag tie suitcase frisbee skis snowboard sports_ball kite baseball_bat baseball_glove skateboard surfboard tennis_racket bottle wine_glass cup fork knife spoon bowl banana apple sandwich orange broccoli carrot hot_dog pizza donut cake chair couch potted_plant bed dining_table toilet tv laptop mouse remote keyboard cell_phone microwave oven toaster sink refrigerator book clock vase scissors teddy_bear hair_drier toothbrush" />
			<model_type value="YOLO" />
			<pad_value value="114" />
			<resize_type value="fit_to_window_letterbox" />
			<reverse_input_channels value="YES" />
			<scale_values value="255" />
		</model_info>
		<nncf>
			<friendly_names_were_updated value="True" />
			<quantization>
				<advanced_parameters value="{}" />
				<fast_bias_correction value="True" />
				<ignored_scope>
					<patterns value="['.*model.23/.*/Add', '.*model.23/.*/Sub*', '.*model.23/.*/Mul*', '.*model.23/.*/Div*']" />
					<types value="['Sigmoid']" />
				</ignored_scope>
				<model_type value="None" />
				<preset value="mixed" />
				<subset_size value="300" />
				<target_device value="ANY" />
			</quantization>
			<version value="3.0.0" />
		</nncf>
	</rt_info>
</net>
